model/bc_policy_230.pth (torch, 218692 bytes, 6 tensors)

net.0.weight f4 [64, 808]
-0.5202429 0.7601655 1.0831549 -0.8967539 -0.86084014 1.42322 1.4883535 -2.7788582
0.00792592 0.024206575 -0.0046093743 0.02053434 -6.8806534 3.8266249 -4.157487 1.478566
-1.3347023 0.7968731 -0.3207268 1.3587264 0.56106436 1.139257 -0.007194938 0.35250762
0.5599772 -0.39553282 1.153715 0.7655025 0.6213371 -0.085567385 -0.2857574 -0.48887762
-1.6719892 -1.232811 -0.91353184 -0.40174115 -1.2820433 -0.7020034 -1.4094167 -1.5537486
-1.957882 -0.9113894 -1.064148 -1.1515012 -0.73776364 -0.20231616 -0.17975506 0.26697952
0.67960346 -0.07322392 1.35958 -0.28930625 1.4138724 -0.020861581 1.834614 0.5942518
1.3097366 1.0127375 1.0285487 0.6033873 0.5117952 0.9607883 0.17376646 0.5386753
-0.36067906 -0.07859235 -0.6225248 0.0012924261 -0.67397875 -0.85809106 -0.0139118 0.13034922
-0.102937125 0.55253977 -0.17769474 1.1662264 -0.14485756 0.5925361 -0.5073502 -0.011857914
-0.6665965 0.34134692 -0.39736632 -0.26564103 -1.1679747 -0.352576 -1.1749095 -0.255349
-0.3204961 -0.52693903 0.40763056 -0.41037533 0.8028296 -0.28764617 0.89814544 -0.63047284
0.943982 -0.9831521 0.37984526 -0.67528355 0.22558552 -0.3389558 0.08893816 -0.09005334
-0.77435046 0.012135794 -1.0407225 0.17786837 -0.7821457 -0.35778272 -0.6409157 -0.13185574
-0.6775643 0.3249031 -0.27432153 0.47184095 -0.21772318 1.0784192 0.7413754 -0.17911807
0.23182397 -0.53870267 0.845326 -0.82519335 0.55297506 -0.62533534 0.3509656 -0.65008956
0.64747095 -0.5348105 0.42768174 -0.0629652 0.097782776 -0.21656163 -0.026205918 -0.13785917
-0.29001838 -0.27802896 -0.1898004 -0.122937545 0.31716815 -0.16940437 -0.22763759 0.025723046
-0.18188922 0.24254507 -0.13205402 0.15892929 -0.017625034 0.20946418 -0.16206428 0.32513624
1.3068022 0.3889806 0.7459167 0.16909653 0.7596829 -0.38006085 0.7880068 -0.8434463
0.7412396 -0.8038371 0.09687317 -0.8153208 0.56133515 -0.45505503 0.76278406 0.051770158
0.5978682 0.16206954 0.568396 -0.032482315 0.55617946 -0.17160276 0.6902582 -0.4222861
0.57362664 -0.62964004 -0.11222575 -0.6579878 -0.3263684 -0.3156856 -0.6385337 -0.3543768
-0.7297442 0.25019413 -1.3689795 0.06398149 -0.8917492 -0.5369756 -0.3747193 -0.55389637
-0.12326251 0.4376789 0.033454027 0.5973412 0.5480557 0.20765929 0.27845514 -0.072036974
-0.0077706343 -0.4374658 0.16069445 -0.3564505 0.22624592 -0.071393356 0.16145001 0.27426746
-1.2393566 0.13241868 -1.1410688 -0.018813783 -1.5955148 -0.3788831 -0.6904939 -0.6814955
-0.5919118 -0.525844 -0.9006081 0.23587961 -0.37521508 0.5251851 0.01114023 0.56612414
-0.11853387 0.9590869 -0.33431387 0.7338986 -0.42206123 0.8957719 -0.4676706 1.0311552
-0.48585054 1.0456396 -0.4798429 1.1950977 0.71459764 0.27164206 0.59615487 -0.09177132
0.68417734 -0.14831087 0.44418883 -0.37672746 0.14464569 -0.01147782 0.1650909 0.09564165
-0.017811222 0.024899455 0.142989 0.032236166 0.11561219 0.46591428 0.17196427 0.046159934
00000000: a42e 05bf 359a 423f d2a4 8a3f aa91 65bf
00000010: 0560 5cbf 132c b63f 5e82 be3f d0d8 31c0
00000020: b8db 013c de4c c63c 3c0a 97bb a237 a83c
00000030: 502e dcc0 6ce7 7440 220a 85c0 a741 bd3f
00000040: 86d7 aabf e0ff 4b3f 4e36 a4be bfea ad3f
00000050: eaa1 0f3f 2cd3 913f 84c3 ebbb e17b b43e
00000060: aa5a 0f3f 4783 cabe efac 933f f9f7 433f
00000070: f30f 1f3f f43d afbd cb4e 92be 2b4e fabe
00000080: be03 d6bf c0cc 9dbf 39dd 69bf 04b1 cdbe
00000090: ff19 a4bf 7fb6 33bf c467 b4bf 3ce1 c6bf
000000a0: e19b fabf d150 69bf 0036 88bf 6464 93bf
000000b0: 14de 3cbf f82b 4fbe b611 38be 8ab1 883e
000000c0: 7efa 2d3f 6cf6 95bd b806 ae3f f31f 94be
000000d0: c5f9 b43f e8e5 aabc a2d4 ea3f e320 183f
000000e0: 73a5 a73f 62a1 813f 7ca7 833f 9777 1a3f
000000f0: 0305 033f 39f6 753f d6ef 313e a0e6 093f
00000100: edaa b8be 07f5 a0bd c95d 1fbf a066 a93a
00000110: df89 2cbf dbab 5bbf 52ee 63bc 447a 053e
00000120: b3d0 d2bd 3f73 0d3f 9cf5 35be e846 953f
00000130: 8a55 14be 72b0 173f b4e1 01bf b247 42bc
00000140: 11a6 2abf 06c5 ae3e 9973 cbbe 1a02 88be
00000150: 3280 95bf d784 b4be 6f63 96bf 1bbd 82be
00000160: 1118 a4be 7ae5 06bf f4b4 d03e b71c d2be
00000170: 3e86 4d3f 5c46 93be dcec 653f ab66 21bf
00000180: cea8 713f dbaf 7bbf 147b c23e 62df 2cbf
00000190: e4ff 663e 9d8b adbe 3625 b63d e36d b8bd
000001a0: d53b 46bf 36d5 463c 6536 85bf 2023 363e
000001b0: b33a 48bf 4c2f b7be 0d13 24bf 3105 07be
000001c0: db74 2dbf b359 a63e df73 8cbe 2395 f13e
000001d0: d3f2 5ebe a409 8a3f c7ca 3d3f ba6a 37be
000001e0: 4363 6d3e 6be8 09bf 4967 583f df3f 53bf
000001f0: c68f 0d3f fa15 20bf c3b1 b33e 456c 26bf
00000200: a8c0 253f 57e9 08bf 1af9 da3e e6f3 80bd
00000210: 5642 c83d 55c2 5dbe cbad d6bc f42a 0dbe
00000220: 4a7d 94be d059 8ebe 095b 42be aec6 fbbd
00000230: dd63 a23e 5778 2dbe d419 69be 23b9 d23c
00000240: 2b41 3abe bc5d 783e 2b39 07be 5cbe 223e
00000250: 6062 90bc c77d 563e 2ef4 25be 4278 a63e
00000260: 4b45 a73f 7728 c73e 66f4 3e3f a427 2d3e
00000270: 947a 423f 5697 c2be d0ba 493f 19ec 57bf
00000280: e1c1 3d3f 45c8 4dbf 7165 c63d ddb8 50bf
00000290: a9b3 0f3f f9fc e8be d145 433f f20c 543d
000002a0: e40d 193f 8ff5 253e 6682 113f 2d0c 05bd
000002b0: c761 0e3f a2b8 2fbe c3b4 303f e235 d8be
000002c0: 32d9 123f 1730 21bf 9dd6 e5bd e371 28bf
000002d0: c219 a7be 8ba1 a1be f276 23bf e070 b5be
000002e0: 84d0 3abf 7219 803e b83a afbf ba08 833d
000002f0: ad49 64bf 3c77 09bf 35db bfbe 27cc 0dbf
00000300: 0e71 fcbd 7317 e03e 1707 093d 5aeb 183f
00000310: 614d 0c3f a3a4 543e ac91 8e3e 1f88 93bd
00000320: cea0 febb 84fb dfbe 168d 243e ae80 b6be
00000330: 03ad 673e ae36 92bd 2753 253e c96c 8c3e
00000340: 3da3 9ebf c398 073e 8b0e 92bf 5d1f 9abc
00000350: d439 ccbf f7fc c1be 35c4 30bf 7d76 2ebf
00000360: 8887 17bf b69d 06bf 418e 66bf 6d8a 713e
00000370: 311c c0be 8872 063f 8385 363c 83ed 103f
00000380: e3c1 f2bd b886 753f 302b abbe c7e0 3b3f
00000390: 6918 d8be 4f51 653f 8572 efbe e5fc 833f
000003a0: 67c1 f8be 85d7 853f f8ad f5be f6f8 983f
000003b0: dfef 363f ab14 8b3e 9b9d 183f 9af2 bbbd
000003c0: 3f26 2f3f cede 17be b86c e33e 6ce2 c0be
000003d0: 001e 143e 770d 3cbc 970d 293e c5df c33d
000003e0: d7e8 91bc f1f9 cb3c b56b 123e 120a 043d
000003f0: 15c6 ec3d 518c ee3e 6717 303e 3312 3d3d

net.0.bias f4 [64]
-0.20110813 -0.0296165 -0.04668824 -0.15694249 -1.0032495 -0.32300964 0.6613253 0.026862437
0.26436254 -0.10906712 0.1062152 0.5273189 -0.27301538 0.08280585 -0.4499331 -0.6067966
-0.9938814 -0.5343293 -0.30789092 -0.8010855 -0.31900656 -0.7794211 0.1345055 -0.58083093
-0.098445326 0.73834044 0.43529966 -1.1931885 -0.6747742 -0.052630804 0.21454692 -0.038615692
-0.4412458 -1.1463671 -1.0121728 0.2501503 -0.2712739 -0.8372799 -0.8452273 -0.1381034
-0.27431133 -0.38422176 -0.4662756 0.37490788 -1.1201199 -0.8100979 0.18118975 -0.84513366
-0.09534867 -0.3898211 -0.823409 -0.29058602 -0.39169678 -0.6678784 -0.18235354 0.53003013
0.7286159 -0.8171456 0.585226 -0.36713964 -0.49992982 -1.4416949 -0.9970037 -0.86142296
00000000: 4aef 4dbe 4d9e f2bc 2b3c 3fbd 88b5 20be
00000010: 7b6a 80bf 8561 a5be 9d4c 293f 9d0e dc3c
00000020: 875a 873e 955e dfbd 5b87 d93d 5ffe 063f
00000030: acc8 8bbe 1d96 a93d a25d e6be 0657 1bbf
00000040: 036f 7ebf cec9 08bf e1a3 9dbe f013 4dbf
00000050: d454 a3be 2488 47bf cfbb 093e 56b1 14bf
00000060: b49d c9bd e103 3d3f 99df de3e 67ba 98bf
00000070: 01be 2cbf 6693 57bd 30b2 5b3e 7d2b 1ebd
00000080: f8ea e1be 28bc 92bf e18e 81bf b313 803e
00000090: 6ae4 8abe fa57 56bf d160 58bf fa6a 0dbe
000000a0: 8972 8cbe b7b8 c4be adbb eebe edf3 bf3e
000000b0: 1760 8fbf 9362 4fbf ce89 393e ae5a 58bf
000000c0: 2a46 c3bd a296 c7be efca 52bf b1c7 94be
000000d0: 7b8c c8be 14fa 2abf e3ba 3abe 0eb0 073f
000000e0: 9286 3a3f 7430 51bf 5fd1 153f baf9 bbbe
000000f0: cdf6 ffbe 7589 b8bf a23b 7fbf 3786 5cbf

net.2.weight f4 [32, 64]
0.8764623 -0.26616654 -0.110849746 1.3637701 -0.27181405 0.72817767 -0.026117815 0.023619285
0.15415867 -0.96897507 0.1125969 -1.5518508 -0.19742969 0.27430624 -0.8430651 0.9580747
-0.3216823 0.38216728 -2.044695 -0.23998585 0.8910111 0.049197204 0.27097705 -0.13435826
0.008832589 -1.6960086 -0.6990772 0.61229706 -0.40455866 0.6379937 -0.03467012 0.63011336
0.35478482 0.4514241 -0.36466685 0.95611596 -0.37328997 0.39705065 0.93564266 0.4059185
-0.038047895 0.0964819 1.0985817 -0.41788954 -0.4437016 0.37629417 0.5173608 -1.0392443
-0.29738674 -0.8475043 0.14195073 0.8454501 -0.078123875 -0.14125524 -0.19354573 -0.31834146
0.5663284 0.5163258 -1.0979693 0.39732033 0.124255374 -0.2614858 -0.8978528 -1.2970551
-0.5675447 -0.3653593 1.1594731 0.5036677 -0.17994687 -0.8613226 -0.32806104 -1.2104228
0.061419692 -0.42341784 0.67968386 -0.10145081 -2.0110962 -0.033803087 0.12324241 -1.8332285
-1.771266 -0.14681028 0.18104212 0.32670382 -0.4605641 0.17948925 -0.106122226 0.42374524
0.7953122 -0.2547777 -0.04879301 0.68764746 -1.0496445 -1.4585612 0.76001745 0.2792181
-1.9454734 0.08920882 0.17260674 -0.95268804 0.84502214 0.093701676 -1.0548301 0.15478238
0.5266754 0.40295306 -0.8542041 0.14819415 -1.6150732 -1.8081268 -1.4560426 -0.34759003
-0.3451305 0.2616934 -0.46338484 -1.1430635 0.62587124 -0.27682325 0.037647776 -0.41661596
-0.48263264 0.7968169 0.26096332 0.18647517 -0.134768 -0.2407501 0.37255657 -0.8346628
-0.19038883 0.8675139 0.11155662 0.9734 -0.63894 0.9797388 -0.37581515 -0.58099955
-1.0367587 0.46584722 -0.84510964 -0.12125408 0.35989732 -0.23146383 0.22049268 0.055148795
-0.8582072 -0.18230022 0.032250218 0.84546655 -0.25134873 0.25248057 -0.92561984 0.7402499
0.33983493 0.8102388 1.1356561 0.41844591 -0.4970845 1.0561546 -1.4619001 -0.40113607
-1.2218472 0.10459736 0.310638 0.5447099 -0.1850076 1.1388566 -0.2510098 -1.2386318
-0.38715893 0.3902313 0.8208628 -1.3421334 0.55763036 0.9919721 -1.4664748 -0.25979838
-1.646878 0.1592917 -0.60611564 0.5103452 -0.7216786 -0.59312373 0.3571953 -0.18595015
0.5244093 0.5223527 -0.037943292 0.77490264 -0.3148433 0.21241128 -0.45142433 -0.005710831
-0.25959048 0.6472625 -1.7360277 0.15574841 0.42126772 1.380559 -0.09272005 -0.62027425
-0.1640773 -1.1373874 1.031233 -1.514184 -0.039009377 -0.56600666 0.98539555 0.9739328
-0.31853244 -0.36809462 0.1001137 0.47148934 0.2777101 -0.03412047 0.029692397 -0.28242877
-1.1398765 -0.6873649 -0.158251 -0.6433301 0.66364074 0.9179501 0.2016886 -1.0600429
-0.8619255 0.7419215 0.2967052 1.182674 -0.13960733 0.124379575 -0.49090615 -0.15617688
-0.36826283 0.2705749 -0.038378444 -0.44917545 -0.39348578 0.040731374 -0.7796602 -0.3731626
0.91715485 -0.38261828 0.79568326 0.72374594 -2.743219 -0.624346 0.39910734 0.26368695
-0.4666312 -0.19977707 -0.64903533 -0.28892243 0.45195743 1.2290239 -0.7073661 1.6434405
00000000: d55f 603f fb46 88be 3105 e3bd 0590 ae3f
00000010: 362b 8bbe da69 3a3f 07f5 d5bc 3b7d c13c
00000020: c5db 1d3e c00e 78bf 3499 e63d 0ca3 c6bf
00000030: 022b 4abe de71 8c3e 1dd3 57bf 6244 753f
00000040: 8bb3 a4be 6eab c33e 48dc 02c0 dabe 75be
00000050: 4e19 643f 0283 493d 81bd 8a3e 3695 09be
00000060: 90b6 103c cf16 d9bf b9f6 32bf 80bf 1c3f
00000070: 5022 cfbe 8e53 233f 4102 0ebd 1c4f 213f
00000080: 5ba6 b53e 0f21 e73e 9db5 babe 04c4 743f
00000090: dd1f bfbe 394a cb3e 4786 6f3f 8dd4 cf3e
000000a0: 1cd8 1bbd 4d98 c53d 539e 8c3f 9ef5 d5be
000000b0: db2c e3be a1a9 c03e c271 043f f505 85bf
000000c0: 1343 98be 0bf6 58bf 885b 113e 6b6f 583f
000000d0: 69ff 9fbd 37a5 10be da30 46be a7fd a2be
000000e0: e6fa 103f ed2d 043f 428a 8cbf 926d cb3e
000000f0: 9a79 fe3d 77e1 85be aed9 65bf e705 a6bf
00000100: 9c4a 11bf 6010 bbbe 9d69 943f 5ef0 003f
00000110: fe43 38be a37f 5cbf 9ef7 a7be 22ef 9abf
00000120: 3793 7b3d 39ca d8be c3ff 2d3f 71c5 cfbd
00000130: cdb5 00c0 1b75 0abd 8466 fc3d 3ba7 eabf
00000140: d8b8 e2bf 6f55 16be 1b63 393e b945 a73e
00000150: 0fcf ebbe 08cc 373e 9c56 d9bd 23f5 d83e
00000160: 9599 4b3f 3972 82be 2edb 47bd aa09 303f
00000170: c05a 86bf 22b2 babf 8190 423f adf5 8e3e
00000180: 4605 f9bf 1db3 b63d d2bf 303e 5de3 73bf
00000190: 5f53 583f aae6 bf3d ac04 87bf 467f 1e3e
000001a0: 33d4 063f dd4f ce3e 1fad 5abf 35c0 173e
000001b0: b8ba cebf b370 e7bf 9b5f babf 52f7 b1be
000001c0: f2b4 b0be adfc 853e c740 edbe e84f 92bf
000001d0: 1939 203f c7bb 8dbe 8e34 1a3d b04e d5be
000001e0: a01b f7be 31fc 4b3f fc9c 853e 59f3 3e3e
000001f0: 9f00 0abe 3287 76be bcbf be3e 76ac 55bf
00000200: 4af5 42be 6415 5e3f cc77 e43d be30 793f
00000210: 9291 23bf 29d0 7a3f d86a c0be 63bc 14bf
00000220: 82b4 84bf 8783 ee3e 1b59 58bf 0f54 f8bd
00000230: 7644 b83e db04 6dbe d5c8 613e b4e3 613d
00000240: 78b3 5bbf e9ac 3abe ce18 043d 7f70 583f
00000250: c8b0 80be 2245 813e 6cf5 6cbf 0481 3d3f
00000260: d8fe ad3e cf6b 4f3f 2e5d 913f 8b3e d63e
00000270: dc81 febe 1330 873f 8b1f bbbf b561 cdbe
00000280: 7d65 9cbf 2437 d63d f20b 9f3e 1c72 0b3f
00000290: a272 3dbe 0ec6 913f 5b84 80be 7d8b 9ebf
000002a0: b239 c6be 66cc c73e 1124 523f 07cb abbf
000002b0: ddc0 0e3f e2f1 7d3f 72b5 bbbf 4b04 85be
000002c0: e6cc d2bf 5d1d 233e 652a 1bbf fca5 023f
000002d0: eebf 38bf f5d6 17bf 4de2 b63e b769 3ebe
000002e0: b03f 063f e8b8 053f 6d6a 1bbd 0560 463f
000002f0: 2433 a1be 5882 593e 1721 e7be ec21 bbbb
00000300: 0be9 84be ffb2 253f 2836 debf 837c 1f3e
00000310: 67b0 d73e 28b6 b03f 02e4 bdbd 4bca 1ebf
00000320: e103 28be e995 91bf 71ff 833f c8d0 c1bf
00000330: 4cc8 1fbd d0e5 10bf e242 7c3f a953 793f
00000340: af16 a3be e676 bcbe 6908 cd3d 0d67 f13e
00000350: 0530 8e3e e8c1 0bbd 783d f33c 819a 90be
00000360: 79e7 91bf 25f7 2fbf 8d0c 22be 48b1 24bf
00000370: 5ce4 293f c7fe 6a3f 7587 4e3e 7caf 87bf
00000380: 26a7 5cbf 91ee 3d3f bee9 973e dd61 973f
00000390: 39f5 0ebe b8ba fe3d 0d58 fbbe d5ec 1fbe
000003a0: f28c bcbe cb88 8a3e b732 1dbd 53fa e5be
000003b0: f876 c9be f1d5 263d d097 47bf 2b0f bfbe
000003c0: a9ca 6a3f 8be6 c3be e6b1 4b3f 6a47 393f
000003d0: e690 2fc0 24d5 1fbf cc57 cc3e fa01 873e
000003e0: 49ea eebe 5c92 4cbe 2e27 26bf a4ed 93be
000003f0: f766 e73e a850 9d3f f215 35bf 425c d23f

net.2.bias f4 [32]
-0.86962664 0.14109266 -0.05231835 0.37924793 -0.2083059 -0.93881595 -0.8499353 -0.36377335
-0.86606884 -0.7020726 0.34015867 -0.27914357 -0.33265993 0.5881366 0.64024574 -0.14108619
-0.6403222 0.05468471 -0.11554203 -0.59575945 -0.3451789 -0.74373513 0.05014663 0.552003
0.23671106 0.0016324702 0.4467634 0.03724763 -0.33012286 0.48601466 -0.8349936 0.5800391
00000000: da9f 5ebf 987a 103e c44b 56bd c92c c23e
00000010: 244e 55be 3e56 70bf 5c95 59bf 8040 babe
00000020: b0b6 5dbf 08bb 33bf 4729 ae3e e8eb 8ebe
00000030: 6752 aabe 1f90 163f 25e7 233f e678 10be
00000040: 28ec 23bf 13fd 5f3d 4da1 ecbd b183 18bf
00000050: 4abb b0be 6d65 3ebf 8d66 4d3d 1250 0d3f
00000060: 6264 723e 9cf8 d53a 2cbe e43e f990 183d
00000070: dd05 a9be ead6 f83e 24c2 55bf 717d 143f

net.4.weight f4 [4, 32]
-0.18408513 -0.7040617 0.078820065 -0.46246836 0.4589621 -0.70074993 0.14155547 -0.04840144
-0.009802823 -0.1443908 0.16829564 0.122867696 -0.14842488 0.20283455 -0.055076133 0.06636105
0.24825248 -1.2431557 -0.10289893 -0.4213449 0.18956466 0.1389356 0.3300833 -0.6059258
-0.21216121 -0.13325877 -0.47347504 0.26026857 -0.0038465436 -0.39189142 0.10439433 0.28155082
-0.29636812 -0.029463287 -0.1547657 -0.055484366 -2.1367311 0.14962389 0.120115414 -0.29831162
-0.11498347 -0.38017395 0.1994009 -0.6538354 0.066476844 -0.35284606 -0.34874988 0.11025696
-0.6871569 -0.22358517 -0.08457126 -0.72959787 0.6392124 0.058945328 0.32746607 0.29921192
0.01622412 -1.5699221 0.08014426 -0.54934776 -0.31041986 0.20496206 -0.20446943 -1.1776726
-0.59781307 0.15422104 0.14025381 -0.8240222 -0.38911393 -0.010657397 -0.32421312 -0.9132631
-0.49469233 -0.02372189 0.2522487 0.20478354 -1.0133982 0.11961931 0.18056563 -0.10408751
0.40041345 0.43980727 -0.08615876 0.4405168 -0.83472127 -0.8244543 -0.6487341 0.13330416
0.29878196 0.5711413 0.06296483 -0.28665838 -0.4145139 -0.82168037 0.15651739 -0.3434825
0.047306735 -1.5469755 -0.65490955 0.0970898 -0.4914503 0.18520854 -0.40134072 0.8457751
0.14571638 0.33884683 -0.44469038 -1.6210026 -0.047847778 0.17773391 -1.0079948 -0.009788533
-0.18002394 -1.3281223 -0.08276233 0.20805837 -1.6601013 0.0929458 -0.9209776 0.07088702
-0.64060056 -0.82391953 -0.10507112 0.09373093 -0.6045013 0.15363151 0.23331308 0.0469532
00000000: d080 3cbe 633d 34bf 6a6c a13d a7c8 ecbe
00000010: 15fd ea3e 5964 33bf ebf3 103e 9740 46bd
00000020: 059c 20bc 2fdb 13be b155 2c3e 0fa2 fb3d
00000030: b1fc 17be dcb3 4f3e 8397 61bd 4de8 873d
00000040: e635 7e3e ba1f 9fbf adbc d2bd 85ba d7be
00000050: 3d1d 423e 2245 0e3e ae00 a93e f41d 1bbf
00000060: ca40 59be fd74 08be 526b f2be ec41 853e
00000070: 4b16 7cbb fea5 c8be b2cc d53d 6e27 903e
00000080: 90bd 97be fe5c f1bc e67a 1ebe 9343 63bd
00000090: 34c0 08c0 0137 193e 12ff f53d 4dbc 98be
000000a0: 747c ebbd 29a6 c2be c02f 4c3e c261 27bf
000000b0: 0325 883d 3da8 b4be 588f b2be 67ce e13d
000000c0: 84e9 2fbf 83f3 64be b233 adbd edc6 3abf
000000d0: 6da3 233f a870 713d a2a9 a73e 4e32 993e
000000e0: 72e8 843c 35f3 c8bf ac22 a43d 0ea2 0cbf
000000f0: 5aef 9ebe 93e1 513e 6f60 51be fabd 96bf
00000100: 470a 19bf 1fec 1d3e b29e 0f3e 1ef3 52bf
00000110: f139 c7be 5d9c 2ebc 43ff a5be 9ccb 69bf
00000120: 5048 fdbe 6954 c2bc be26 813e c7b2 513e
00000130: 08b7 81bf f8fa f43d 32e6 383e d52b d5bd
00000140: fe02 cd3e 6b2e e13e 0174 b0bd 6b8b e13e
00000150: 4bb0 55bf 700f 53bf 7013 26bf e380 083e
00000160: f3f9 983e 5136 123f b4f3 803d e3c4 92be
00000170: 2a3b d4be a559 52bf 1846 203e f0dc afbe
00000180: b5c4 413d 4b03 c6bf 27a8 27bf 04d7 c63d
00000190: 609f fbbe 4fa7 3d3e 887c cdbe b884 583f
000001a0: ad36 153e 557d ad3e 75ae e3be 037d cfbf
000001b0: 08fc 43bd e1ff 353e f905 81bf 1560 20bc
000001c0: 3258 38be e9ff a9bf 4c7f a9bd 410d 553e
000001d0: 337e d4bf 5e5a be3d 30c5 6bbf 372d 913d
000001e0: 66fe 23bf 64ec 52bf 872f d7bd 00f6 bf3d
000001f0: 99c0 1abf 9451 1d3e a0e9 6e3e 0052 403d

net.4.bias f4 [4]
-0.023439255 0.4494609 0.30760977 -0.5913353
00000000: ae03 c0bc bd1f e63e 077f 9d3e c061 17bf
