model/bc_policy.pth (torch, 14812 bytes, 6 tensors)

net.0.weight f4 [64, 12]
00000000: f185 823e f3a5 33be a0a6 adbc b393 db3e
00000010: 2aa1 2fbc abb5 8f3d bf48 28be 5283 2ebe
00000020: 4b4d 883e 5096 37be 2dc0 ea3c 7c7b db3e
00000030: 052a 743e 6bc3 273d ac6f 74be 6b93 0a3d
00000040: c553 93be 0b72 f13d e466 89be a02c d03e
00000050: 3785 45be ce7b bcbe 0a75 d73e c701 07be
00000060: ca5f c6be 15e0 40be 09d4 953e a730 1b3e
00000070: ac14 8a3e 6fb8 9d3e 5719 33bf 3c27 b73e
00000080: 9943 9f3d 5d2e 8bbe 87b6 60bd 0928 90be
00000090: 5f10 223e 6848 823d 2cac 1f3d 13f9 8dbd
000000a0: 3bbb aabd c01f cb3e d592 1fbe bebf 0d3e
000000b0: 0a7a 37be ca20 69be 9df3 113e f529 b43c
000000c0: 44c0 5abe c3f4 a6be 9d61 41bd 00dc cd3e
000000d0: 9c31 d33e 1a42 093e 793c cdbe c1ea 5ebd
000000e0: 7899 bf3d 12ef 82be 6959 91be c6ba 3b3e
000000f0: e72d d2bc 299d 20be 0038 efbd 5672 a0bd
00000100: 50a8 12bf 7ce7 cf3e 597e 923e 893d 7f3e
00000110: cb08 a43e 2d3d 553e 6cbc 81bd e02f c4bc
00000120: e88e d23e 7774 ab3e 3294 8a3e fd44 1bbe
00000130: c8c1 5f3e 6225 0cbf 5932 d2bb 46ac 093e
00000140: ee2a 91be 9e9f e73c 204f 75be 7f3d 0e3e
00000150: 9e07 613e 9ba0 823e 9b1e 12be 89e6 5e3e
00000160: f4f6 4a3e 557e 4abd a974 ba3e ef11 4ebf
00000170: 97ea 1a3e b529 5fbe 6646 7cbe 9798 ab3d
00000180: c4a0 823d 0eb2 8c3e 571a 7b3e bd97 8a3e
00000190: 43e2 0abd 3bad ca3a 30a3 d4bd aa04 f23e
000001a0: fec0 e63d 70e0 3dbe 752d 283e 3e7a a6be
000001b0: 2d87 c73d 538f 9b3e 212d 8bbe 0e07 d5be
000001c0: ba7f adbd 26ed 813d 88e0 0d3f de06 9dbb
000001d0: 6e33 043e 85e2 813d 82fc 323d ced1 93be
000001e0: 5063 fa3c ce72 7ebe 82e7 d4bd aaef 7cbe
000001f0: fc42 73be 42c8 0b3e 50a0 6a3d 738b 80be
00000200: 5c7d 72be 237d 2cbe 2043 4abc bbcf 4cbe
00000210: b0fe 52be b500 00be ab6d a43e 547c 3e3e
00000220: 0c21 4abe f02c f43e 2244 abbd 1594 4f3e
00000230: 6c24 2f3e 5377 133d 086b 443e 00c1 6cbe
00000240: 83dc 973e f6b9 8abe 5de0 cb3e ab83 5b3e
00000250: 5a1a e03e 98a6 09be 9c9c 49bf 23b0 4c3e
00000260: 448a bdbe 2d77 dcbd acc4 f03d cb38 1f3e
00000270: c739 76be 43dc 5a3e 080b e7bc 8c8a 683e
00000280: 1135 8fbe f59b 673e e0be f13e cf52 50be
00000290: 76fd 86be 3618 3f3d 45a2 673e 9dde 61be
000002a0: 6f87 98be 61d5 b5be 1178 133d 92e8 1cbf
000002b0: 6cdf 0dbe bfb1 a0be 5046 0ebe 8b33 76be
000002c0: 90d9 8bbe cefe b63e e914 4d3e 5d5c d83e
000002d0: 57ef f1bc 9cd8 27be 5979 0b3e 2c2d 013e
000002e0: c00f 2abd c22c a5bd 2324 6cbe 3eda 083c
000002f0: abf8 65be 9fc7 41be a400 3dbe 3467 ebbd
00000300: 9865 9a3e a535 413d e1c1 a8bd 49d5 923d
00000310: c146 973d ea9a ff3d cb2e 9cbe eaff f6bd
00000320: 4b0e 9c3e a50c 823e 676c 2a3e aa53 95be
00000330: 0597 d8be 3e00 d5bd bfe3 aabe 83ab 4e3e
00000340: fa29 c5bd 88a0 4bbe 4890 b23e 27e6 07be
00000350: 06e8 8b3d 78fc 2bbe 6f1e 533e c04c 27be
00000360: b73b 96be 5729 793d 0cd5 c93e ef9e 0e3e
00000370: 1efc 3bbe 0868 9e3e 14db 1ebf 2b0d 533d
00000380: 3829 d93d a05b c63c 93db d13d fbe2 62be
00000390: cec1 583e 4870 a0be 570f 8f3d 3ae8 b73e
000003a0: 44db c23c 2208 03bf 5c07 c83e c8e3 223d
000003b0: 6259 01be 80a3 4f3c 4c95 65bf 87cc a8be
000003c0: a0b2 7abe 502b e83c 60ca ce3d 48e3 7c3d
000003d0: 98de 5f3d be07 b8bd 5cbb 853d e61d 9dbd
000003e0: 0817 033d edf3 50be 484c 49be 75a9 87be
000003f0: 5196 d93e 1af1 ffbd e0b5 3b3e fe9f 6f3d
0.25492814 -0.17543773 -0.021197617 0.42886123 -0.010719577 0.07017072 -0.16434 -0.17042282
0.2662147 -0.17928433 0.02865609 0.4286765 0.23844154 0.04095785 -0.23870724 0.033831995
-0.2877485 0.1178933 -0.26836312 0.40659046 -0.19289099 -0.36813205 0.4208148 -0.13184272
-0.38744956 -0.1883548 0.29263332 0.15155278 0.26968896 0.30804774 -0.6996054 0.3577212
0.07776565 -0.2718381 -0.05486157 -0.28155544 0.15826558 0.06361467 0.038982555 -0.06932273
-0.08336493 0.3967266 -0.15583356 0.13842675 -0.17917648 -0.22766414 0.14253087 0.021992663
-0.21362406 -0.32608613 -0.047212232 0.4020691 0.41248786 0.13404122 -0.400852 -0.054423098
0.09355444 -0.2557302 -0.28388527 0.18332967 -0.025656654 -0.15684952 -0.11680603 -0.07834308
-0.57288074 0.40606296 0.2861202 0.24925818 0.32037959 0.20824118 -0.06334767 -0.02394861
0.41124654 0.33487293 0.2706619 -0.15163036 0.21851265 -0.5474454 -0.0064146933 0.13444623
-0.28353065 0.028274354 -0.23955965 0.13890646 0.21975562 0.25513157 -0.14269488 0.2176763
0.19820768 -0.049436886 0.3641713 -0.80496114 0.15128551 -0.21793254 -0.2463623 0.083787136
0.0637832 0.27479595 0.24521767 0.27068892 -0.033907186 0.0015463004 -0.10382688 0.47269183
0.11267279 -0.18542647 0.1642359 -0.32515138 0.097425796 0.30382785 -0.27182868 -0.41606945
-0.084716275 0.063440606 0.5542073 -0.0047920784 0.12910244 0.06342033 0.04369784 -0.28871006
0.030564934 -0.24848482 -0.10395719 -0.247008 -0.23756021 0.13650611 0.057281792 -0.2510639
-0.23680633 -0.16844611 -0.012345105 -0.20001118 -0.20604968 -0.1250027 0.3211492 0.18602115
-0.19739169 0.47690535 -0.08362605 0.20271333 0.17103738 0.03600247 0.19181454 -0.23120499
0.29660425 -0.27095002 0.39819613 0.21436946 0.43770105 -0.13442457 -0.7875459 0.19989066
-0.3701955 -0.107649185 0.11756262 0.15549009 -0.24045478 0.21373086 -0.028203502 0.22709101
-0.27970174 0.22618087 0.4721594 -0.20344089 -0.2636525 0.04665395 0.22620495 -0.22057576
-0.29790828 -0.35514358 0.036003176 -0.61292374 -0.1385476 -0.3138561 -0.1389401 -0.240431
-0.27314425 0.35741276 0.20027508 0.42257968 -0.029533071 -0.16391224 0.13620509 0.12614888
-0.041518927 -0.080651775 -0.2306066 0.008352814 -0.2245814 -0.18923806 -0.18457276 -0.11494294
0.30155635 0.0471703 -0.082401045 0.07169587 0.07386542 0.124807194 -0.3050445 -0.120605305
0.30479655 0.25400272 0.16642915 -0.29165393 -0.4230272 -0.10400437 -0.3337688 0.20182614
-0.09627147 -0.19885457 0.34875703 -0.1327139 0.06831364 -0.16795528 0.20617078 -0.16337872
-0.29342434 0.06083044 0.39420354 0.13927816 -0.18357894 0.30938745 -0.62053037 0.05152623
0.10603565 0.024213612 0.102469586 -0.22156899 0.2116768 -0.31335664 0.06985348 0.35919362
0.023786195 -0.51184285 0.39068115 0.03976801 -0.12631753 0.012673259 -0.89680934 -0.32968542
-0.24482203 0.028340966 0.10097194 0.06174019 0.05465564 -0.08985852 0.065298766 -0.07671718
0.032004386 -0.2040555 -0.19658005 -0.26496473 0.42497495 -0.12497158 0.18331099 0.05850219

net.0.bias f4 [64]
00000000: 450a c7bd 1a1d 763e f3cc 283d b32d 1abd
00000010: 6207 043e eae5 f73d 4433 1b3e 4de6 fd3d
00000020: 618a 54bd be5e 8f3e 98fc 38be 935a 7c3d
00000030: 57b1 26bd 5017 79be 7604 903e f5fa ca3c
00000040: 6138 6f3e d406 af3e dd6e f33b 1f61 e8bd
00000050: 68bb 71be 450d a5be d124 2a3e e458 313d
00000060: a2b4 873d ba82 c9bd 07c8 833d aa09 b03d
00000070: fcc0 b73e e475 1bbc ecb0 1abe ecb9 dc3d
00000080: e0bf 603e 0890 3a3e 869a 4fbc b064 9b3e
00000090: 742b 563e c483 b13e 8b2d 6cbe 1a10 b6bd
000000a0: 19c2 31be 1748 c4bd af96 9c3d 1492 9c3e
000000b0: d989 97bd b24c cf3d 7bbc a8be f159 f6bc
000000c0: 05a4 e93d e963 8d3e f01d 1e3e 52e9 273d
000000d0: dd59 35be 6bad 3fbe 46d6 443e 93a7 a63e
000000e0: 1ac3 1e3d ae58 ab3d 5358 c4bd 3991 233e
000000f0: 9f68 5b3e d80b 0e3d 8a2f e43d 4606 90be
-0.09718756 0.24034539 0.04121108 -0.03764124 0.12893441 0.121043995 0.15156275 0.12397442
-0.05188978 0.2800197 -0.18065107 0.061609816 -0.04069647 -0.243253 0.28128403 0.024777869
0.2336135 0.34184897 0.0074289874 -0.113466494 -0.23606646 -0.32236686 0.16615607 0.043297663
0.0662625 -0.09839387 0.064346366 0.08595593 0.35889423 -0.0094885565 -0.15106553 0.10777649
0.21948195 0.18219006 -0.012671119 0.30350256 0.20915014 0.34670842 -0.23064248 -0.0888979
-0.17359199 -0.095840625 0.07645928 0.305802 -0.07399339 0.1012205 -0.329563 -0.030072184
0.11408237 0.27615288 0.15441108 0.040993996 -0.17710061 -0.18718497 0.19222364 0.32549724
0.038760282 0.08366524 -0.09587159 0.15973367 0.21426629 0.034679264 0.1114188 -0.28129786

net.2.weight f4 [32, 64]
00000000: eb48 473c bc6f 503e 4de2 a53e 6218 953d
00000010: 659e 1dbd daa8 6b3e bacb fabd 2384 76be
00000020: 6043 273e ba0d dd3d ca12 a6bd 87b5 4b3e
00000030: 79a0 023e bfa3 2a3d 2216 423f 90b1 d5bd
00000040: f4e5 d03d be23 aabe 21b3 ad3e 7f1e 56be
00000050: e8fb b13d 721c dcbd 94e6 203d 22f0 a73e
00000060: 6adb e8bc 6584 8a3e 2dcb 253e a423 c0bd
00000070: 77d3 883d db19 d33d 703f 13be 16b4 70be
00000080: 2d57 bbbd 1b47 033e 6191 8bbe bbae f23d
00000090: 4b8b ec3d 4c0a 68bc bfbb 8b3e 23ec 01be
000000a0: 8fe2 923e 4d9d 0d3e b4b6 3abe 0018 813d
000000b0: 1dec 9a3e 47d7 013d 3b5f 1abe 8b14 e93e
000000c0: 9627 fe3d 01d4 a2bd e984 913e 3c28 b93d
000000d0: caeb a6bb 21f3 2abe 1079 c7bd fc60 c6bb
000000e0: 3a00 a03d 9b0f 1cbc 7f8d 42be dceb 66bc
000000f0: 8fbe a3bc 727c 173f 08f5 803e 4b4a 743e
00000100: 0ab7 1dbe 49ab 993e c43c 4e3e 9180 303e
00000110: f2c0 a43d f81a 07be 73ef 643d 261a ebbd
00000120: c6de 623e e30d efbd a215 dbbd 5bc1 023d
00000130: 59bc a8bc fef7 83be 959a e53e cf59 683d
00000140: b382 4b3e cbb4 32be 0ad3 a93e ec34 513e
00000150: de82 ad3d 0351 df3d fc0e 3ebe bea9 053e
00000160: b393 e93c a195 a03d e9f8 28bd 4dc0 08bf
00000170: bf3d 6a3e 6034 d63d 5e9d bc3d 6d68 dfbd
00000180: 2665 b83e 283b df3d 380d a53e 18ed f93d
00000190: f4be b23d 3af3 f2bd f506 61bd 753a 69bd
000001a0: 83f7 a2be 44c1 17be aa18 1b3e f3a1 51be
000001b0: 237f 32be 15c6 e33d 8abf 58bf 1522 693f
000001c0: aa0a 733e 3d30 093e b55b c33d 8033 953e
000001d0: 5f1c 4ebe ff09 3a3e 9233 0d3d dab3 f93e
000001e0: 642d 293e 798d fabd 2c44 a23e 6ac0 83bc
000001f0: f3ca 8e3e d4b5 1cba f4b5 09be 4f36 a13e
00000200: 3bc4 753e 6abc ae3d 7a79 38bd fc37 0abe
00000210: 20b2 493e 0d21 dc3d c32d 23bf 72ad b63e
00000220: f4aa 6fbe 4bf0 30bc c8fe 4cbd 815e acbd
00000230: 49ff 65bd 8dac 40be d441 7fbe 1ace fd3d
00000240: 6af0 443e 597e 66be 141d 56bd 0735 d7bd
00000250: 58ca d8bc 7694 3dbe 33b9 9f3d cb9d d13d
00000260: 7f98 38be b32e 9c3d 84b1 f53b 2ae8 313d
00000270: 65fb fd3d b08d 303e 8647 8abe 041d 593e
00000280: 5255 2abf e885 e5b9 ecbb 5fbe 20cb ef3c
00000290: f57b 703c 91f8 c8bc e3df cf3c 49ed cfbd
000002a0: 122a ab3e 109d edbc 48e3 133d eb0f 6d3e
000002b0: d70c 223e 9f83 a7be 1ef1 033c c80d babe
000002c0: d43e 96bc 1a6f 66bd fc6f 0d3e 2791 67be
000002d0: 5ce0 84be 3bdb 693d 6cfd 1dbe f5bf 8abe
000002e0: 4301 18be df18 173e 78f3 7abe 4be5 bbbe
000002f0: c60a b7be 87a9 f03d 3003 013d fb41 853c
00000300: e582 6b3c c7c0 cabd f5e4 37be d9bc 8abd
00000310: e0de d03e 220c 1abe 7944 1d3e 020b a83d
00000320: bd85 48be 77c9 63bd fee4 d4bd e12c 913d
00000330: 71fa 763c 8169 e83d d130 2bbf 86f8 1b3d
00000340: 3d38 cfbb 5f6d bf3e bdb7 8abd 7c47 b93e
00000350: c2d0 b53d 376f 9e3e 1701 313e 2472 72bd
00000360: 85d1 ad3d 153b 2fbe a7c3 2ebe ca6b 40be
00000370: b301 bb3c efc5 d13d dfb7 1a3e 8d8c 843e
00000380: 24df c93e 96b5 24bd e591 513e b379 63bd
00000390: 5d1f e73a 5e53 043e faa3 2dbe 6526 b53d
000003a0: fb35 9fbd 5bd4 5fbe 595d c33e ece4 f13c
000003b0: 7957 2dbd 5d5f 0cbd 51e0 633e 6cd5 c4be
000003c0: 746c 273e 013d 083c db6e cb3d 0c0f 0d3e
000003d0: 5c42 863e 4ccf 893e 82f6 233a f8d7 e7bc
000003e0: 03fe 733d 3c04 2bba 534b 133e ed1a 593e
000003f0: e4df d4bd 8673 92be 46ee 183e a2b2 91bd
0.012163381 0.20355123 0.32399216 0.07280041 -0.038481135 0.2301363 -0.12245889 -0.24073844
0.16334295 0.10793634 -0.081090525 0.19893466 0.12756528 0.041660067 0.7581502 -0.10434258
0.1020011 -0.33230394 0.33925727 -0.20910071 0.086906254 -0.10747613 0.039282396 0.32800394
-0.028424937 0.27054134 0.16190787 -0.09381798 0.06680959 0.10307666 -0.14379668 -0.23506197
-0.09147487 0.12820093 -0.27259353 0.118497334 0.115500055 -0.014162611 0.27291676 -0.12687735
0.28688475 0.13829537 -0.18233758 0.06303406 0.30258265 0.031699445 -0.1507539 0.45523486
0.12409894 -0.07950593 0.28421715 0.09040877 -0.005094026 -0.16694309 -0.09739888 -0.006054042
0.07812543 -0.009525205 -0.18999289 -0.014094319 -0.019988326 0.59174263 0.25186944 0.23856466
-0.15401855 0.30013493 0.20140368 0.17236544 0.08044614 -0.13193882 0.05589242 -0.11479597
0.22155294 -0.116725706 -0.106974855 0.03192268 -0.020597624 -0.2577514 0.448445 0.056726273
0.19874077 -0.1745178 0.33168823 0.20430344 0.084722266 0.10904124 -0.18560404 0.13053033
0.028512811 0.078410394 -0.041253004 -0.5341843 0.22875117 0.104592085 0.09209703 -0.109085895
0.3601467 0.10899955 0.32236648 0.12203425 0.08727828 -0.11862798 -0.054938275 -0.056940515
-0.3182946 -0.14819819 0.15146127 -0.20471935 -0.17431311 0.111217655 -0.84667265 0.9106763
0.23734537 0.13397308 0.09538976 0.29140854 -0.2012801 0.18167876 0.03447301 0.48770028
0.16521221 -0.12234015 0.31692636 -0.016082961 0.27889213 -0.0005978022 -0.13448316 0.31486747
0.24000637 0.08532031 -0.045037724 -0.13497919 0.19696856 0.107484914 -0.637417 0.35679203
-0.23405057 -0.010799478 -0.050047666 -0.08416463 -0.056151662 -0.18815823 -0.24927455 0.123928264
0.19232336 -0.22509135 -0.052273825 -0.10508161 -0.026463673 -0.18513665 0.07798996 0.10235175
-0.18026923 0.07626095 0.007497968 0.0434343 0.12401465 0.1724155 -0.27007693 0.21202475
-0.6653644 -0.00043778052 -0.2184903 0.029271662 0.014677991 -0.024532588 0.025375312 -0.101526804
0.33430535 -0.029005557 0.036105424 0.23150603 0.1582521 -0.32717606 0.008053092 -0.3633864
-0.018340506 -0.0562583 0.1381225 -0.22613965 -0.25952423 0.05709384 -0.15428704 -0.27099577
-0.14844231 0.14755581 -0.24506938 -0.36698374 -0.35750407 0.11751085 0.03149718 0.016266814
0.014374469 -0.099000506 -0.17958434 -0.06774301 0.4079504 -0.15043691 0.15358151 0.082052246
-0.19582267 -0.055612054 -0.10395239 0.07088638 0.015074358 0.11348248 -0.6687136 0.038078807
-0.006323843 0.3738813 -0.067733265 0.3618735 0.08877708 0.30944225 0.17285572 -0.059190884
0.08487228 -0.17112382 -0.17066823 -0.18791118 0.022827959 0.10242831 0.15109204 0.25888482
0.39428055 -0.040212236 0.2046581 -0.055535983 0.0017633248 0.12922427 -0.16957083 0.08845214
-0.07773968 -0.21858351 0.38157156 0.029528104 -0.04231975 -0.034270633 0.22253539 -0.38444078
0.16349965 0.008315326 0.099332534 0.13775271 0.26222503 0.26915967 0.0006254689 -0.028301224
0.059568416 -0.00065237633 0.14384203 0.21201678 -0.10394266 -0.28603762 0.14934644 -0.0711415

net.2.bias f4 [32]
00000000: 1a30 283e 45f2 ec3c 0e73 09be 2488 8f3d
00000010: 6e24 e63a 33c6 283e 1e70 0d3d 5faf 7a3b
00000020: 86a2 3f3e e3c8 0e3e 4f86 ee3d 0ca8 1e3e
00000030: e752 903d 3bbf 213d a339 193e b495 cebd
00000040: 22e9 e1bc 1565 4f3d 8dcc ec3d 493f bb3d
00000050: 5ad0 0abb b8fd 7aba 06f3 1d3e 3fee 9e3d
00000060: 13e8 373e bdf1 7dbd 6c86 ca3c 061f 543e
00000070: 86ab e53d c526 263d cb7f 1d3e 2cca 793d
0.164246 0.028924117 -0.13422796 0.07008389 0.0017558464 0.16481857 0.03453075 0.0038251502
0.18714342 0.1394382 0.11646711 0.15493792 0.07047062 0.039489012 0.14963393 -0.10087147
-0.027576987 0.05063351 0.115624525 0.0914293 -0.0021181316 -0.000957455 0.15424737 0.077602856
0.17959623 -0.061998118 0.0247223 0.2071496 0.11214356 0.040564317 0.1538078 0.06098382

net.4.weight f4 [4, 32]
00000000: b69d 913d fa48 cbbe 485e 933e 478d ddbe
00000010: 4d16 6e3d df89 7e3d 111f a53e 6a61 103e
00000020: efb8 913e c147 5ebe 99a3 e7bd 04b7 833e
00000030: 9fb9 913e 62ee f23e 811a d7be a59e 963d
00000040: 9190 6cbe db1a 54be e3d4 903e 95b9 e1be
00000050: acd8 58bf c2be b2be 792e 943d a954 04bf
00000060: b13c b7bd 8a3d fcbd 2e6f 5fbe 7811 8b3e
00000070: 2364 753e 52b9 893d 7bbd 0b3d 20f9 aabd
00000080: 372a d7be f05b f23d c7e5 f23d 2534 933d
00000090: 66c5 92be 8e13 a2be cfc3 ef3d 543c 883e
000000a0: fbe5 bfbd 3922 44bd bdfa 6cbe eb20 a13d
000000b0: 6145 c9be a702 663e 9584 233e 905d 9a3d
000000c0: 32a4 fb3d 26ba aa3e 671a d3be 086e f7bd
000000d0: 6ff8 5d3e 2048 2f3e b5dd dbbe 29d5 473c
000000e0: 0d81 8c3e b9a6 b83e 8ca0 5bbd 6bad 84be
000000f0: 4864 5f3e 4958 9ebe b0e9 353d f3eb f8bd
00000100: e38d 0c3e 91ac 8a3e 04b7 e1be 2737 4dbe
00000110: a6f4 96be b2a1 b3be a735 9abe e5a9 073d
00000120: 0489 833d 9bde a43e 94f2 cb3e 82fc b6be
00000130: 5da0 41bd 0e80 94be f007 50bd 05dd 98bd
00000140: a0ae debe 3d94 95be ef57 c9bd ffac aa3e
00000150: 7494 3ebe 7aae 7fbe 5855 76be 4ee1 d23d
00000160: 2fef c53d 3fc8 28be 1e8d 693e e1f6 a73e
00000170: b337 aabe 477c 363d 12b4 343e 8847 13bf
00000180: 5f35 61be 61d4 ccbe 7b64 99be 8913 7c3e
00000190: 9985 b43e cfc3 223e e1bc aebe 1d08 0ebf
000001a0: e6e4 8abe 15cb c5be ead1 1dbe 6b88 1d3e
000001b0: 5ea0 183e 4ddc 71be 35c9 f33d 9815 79bd
000001c0: 2dc6 ac3e dac8 2b3d 6b31 923d db4f 9b3e
000001d0: ffda f2bd 094f ebbb bbfb 333e 3b1a 543e
000001e0: 2c04 c7be 76c7 a7be 91ea 893e 7e03 44be
000001f0: 191d a2be 7e61 aa3e 8499 efbe 8f75 663e
0.07110159 -0.39704114 0.28782868 -0.4327185 0.058126736 0.062143203 0.32250264 0.1409966
0.28461406 -0.2170706 -0.11310501 0.25725567 0.2846193 0.47447497 -0.42012408 0.07354478
-0.23102023 -0.2071337 0.2828742 -0.440869 -0.84705615 -0.34911162 0.072354265 -0.5169168
-0.08947123 -0.12316425 -0.21819755 0.27161765 0.2396398 0.067248 0.03411625 -0.08348298
-0.42024395 0.11833942 0.11860233 0.0718768 -0.28666228 -0.31655544 0.117072694 0.26608527
-0.09370037 -0.0478842 -0.23142524 0.07867607 -0.39310744 0.2246195 0.15968545 0.07537377
0.12287177 0.33345145 -0.4123108 -0.12081534 0.21676801 0.17117357 -0.42942587 0.012196817
0.27442208 0.360647 -0.053619906 -0.25913557 0.21815598 -0.3092673 0.044412315 -0.12154379
0.13726 0.27084783 -0.44084942 -0.2004057 -0.29483527 -0.350843 -0.30119058 0.03312101
0.06422618 0.32201084 0.3983351 -0.35739523 -0.047272075 -0.29003948 -0.05078882 -0.07464031
-0.43492603 -0.2921466 -0.09831225 0.3333511 -0.18611318 -0.24968901 -0.24055994 0.1029688
0.09664761 -0.16482638 0.22807738 0.3280554 -0.3324562 0.044552114 0.17646816 -0.57531023
-0.21993016 -0.40005782 -0.29959473 0.24616827 0.35258177 0.15895008 -0.34128478 -0.5548113
-0.2712776 -0.38631502 -0.15412107 0.1538407 0.14904925 -0.23619194 0.119036116 -0.06081161
0.33744946 0.041939594 0.07138332 0.30334362 -0.118581764 -0.0071810526 0.17576496 0.20713131
-0.3887037 -0.32769364 0.26936772 -0.19141957 -0.31662825 0.33277506 -0.4679681 0.22505783

net.4.bias f4 [4]
00000000: 6af9 c2bd f4ff e53d 05b1 b5bd 81af f2bd
-0.09520228 0.1123046 -0.088716544 -0.11849881
