model/bc_policy_dagger.pth (torch, 14946 bytes, 6 tensors)

net.0.weight f4 [64, 12]
0	0xbe7abc5f	-0.2448592
1	0xbf30aa04	-0.69009423
2	0xbdf58337	-0.11987918
3	0x3daf28f4	0.08552733
4	0x3eef4dfc	0.46739185
5	0x3e78f8be	0.24313638
6	0xbf0eef50	-0.5583391
7	0xbe776527	-0.2415968
8	0x3ec9288a	0.3928874
9	0x3d21b022	0.039474614
10	0x3e848589	0.2588313
11	0xbdefce80	-0.117093086
12	0x3d695959	0.056969974
13	0xbe8ce1c6	-0.27516
14	0x3ef1e12a	0.472421
15	0x3e6914ac	0.22761792
16	0xbe52de5c	-0.20592636
17	0x3dd8b04a	0.105804995
18	0xbee1835a	-0.44045526
19	0xbe82619a	-0.2546509
20	0x3ee79f65	0.45238796
21	0xbe61bf50	-0.22045636
22	0x3ea94a5b	0.3306454
23	0xbd2a4bea	-0.041576304
24	0xbe35eb44	-0.17765528
25	0x3c93ce3c	0.018042676
26	0xbe3f6c86	-0.18693742
27	0xbe220c38	-0.15824974
28	0xbdfac42c	-0.12244448
29	0x3dccddf3	0.10003271
30	0x3ea98bc2	0.3311444
31	0xbe897b2f	-0.26851794
32	0xbe886235	-0.26637426
33	0x3d74d570	0.059773862
34	0x3e625a26	0.22104701
35	0xbee8a68d	-0.45439568
36	0xbf02945a	-0.51007617
37	0xbe2e494e	-0.17020151
38	0xbe6111d6	-0.2197946
39	0xbeb2ba35	-0.3490769
40	0x3e54a5cc	0.20766371
41	0x3eacf3dd	0.33779803
42	0xbc092b99	-0.008372211
43	0x3e44c91d	0.19217344
44	0xbcf03738	-0.029323205
45	0x3e261d92	0.16222218
46	0xbdd72c67	-0.10506516
47	0x3da3f492	0.080056325
48	0x3e9fdf25	0.31224933
49	0x3ec3ca1d	0.38240138
50	0x3d827166	0.06369285
51	0xbe90092d	-0.28132
52	0x3f27a52d	0.65486413
53	0xbeb18d54	-0.34678137
54	0xbea4a2e3	-0.32155523
55	0xbe8e3846	-0.27777308
56	0x3e388983	0.18021207
57	0xbe1a2607	-0.15053569
58	0xbe8d0204	-0.275406
59	0x3e3ac424	0.18238884
60	0xbec292e3	-0.3800269
61	0x3e033ace	0.12815401
62	0xbf17d07b	-0.5930249
63	0xbf1af146	-0.60524404
64	0xbeb3b9ae	-0.351026
65	0xbd979ee8	-0.07403356
66	0x3e833150	0.2562356
67	0x3f163c59	0.58685833
68	0x3ee0fe3e	0.4394397
69	0xbe2ae923	-0.16690497
70	0x3dfc990f	0.12333881
71	0x3de3d25b	0.111241065
72	0x3ca64f0b	0.020301362
73	0xbdbf539a	-0.093421176
74	0xbe8fead6	-0.28108853
75	0xbf1a4007	-0.6025395
76	0xbe0aecc0	-0.13566875
77	0x3e9c2d01	0.30503085
78	0x3f36abe0	0.7135601
79	0xbcb779df	-0.02239698
80	0x3e29a9a1	0.16568615
81	0xbd8e34fb	-0.06943699
82	0x3d608f0e	0.054823928
83	0x3e24e4ab	0.16102855
84	0x3ec48204	0.38380444
85	0xbf37415c	-0.71584105
86	0x3d00356b	0.031300943
87	0x3f32fd07	0.6991734
88	0xbd8f375d	-0.069929816
89	0xbe7d0e0c	-0.2471239
90	0xbf49d693	-0.7884304
91	0xbe7daac6	-0.24772176
92	0x3eaa87f3	0.33306846
93	0x3ed451e2	0.41468722
94	0xbf05c7a1	-0.52257735
95	0xbeab2285	-0.33424774
96	0xbe82b953	-0.25532016
97	0xbd2e7b12	-0.042597838
98	0x3e1f3f07	0.15551387
99	0x3e4f2957	0.20230614
100	0x3e1a9573	0.15096073
101	0x3f1c5eaf	0.61081976
102	0xbebd4faa	-0.3697484
103	0xbeb40e71	-0.35167268
104	0xbe098195	-0.13428338
105	0x3eb7f5e1	0.35929778
106	0xbeb2d339	-0.34926775
107	0x3ef900f3	0.48633537
108	0xbd5f2360	-0.054477096
109	0xbd111dd2	-0.03542883
110	0xbeeabdf1	-0.4584804
111	0xbe80af86	-0.25133914
112	0x3e46dcd9	0.19420184
113	0xbdf7fe57	-0.12109058
114	0x3f0239c4	0.50869393
115	0x3ebefd1e	0.37302488
116	0x3e5412ba	0.20710269
117	0x3e554167	0.2082573
118	0x3db0dd75	0.086359896
119	0x3de28675	0.11060802
120	0x3ed58004	0.4169923
121	0x3ea88304	0.32912457
122	0xbf1ac7ce	-0.6046113
123	0xbef70f74	-0.48253977
124	0xbec7055e	-0.38871282
125	0xbdedba24	-0.11607769
126	0xbdedaee8	-0.11605626
127	0x3e4796ab	0.19491069
128	0x3e869a94	0.2628981
129	0x3cd106f3	0.025516009
130	0xbe291938	-0.16513526
131	0x3e7bb99b	0.24582522
132	0xbe8e2ef4	-0.27770197
133	0x3d1ba2f5	0.037997205
134	0x3e55e63a	0.20888606
135	0x3ece4c8c	0.40292776
136	0x3e9c72b8	0.30556273
137	0x3e8b33e9	0.27188042
138	0x3f00f06c	0.50366855
139	0xbeecd059	-0.46252707
140	0xbd4538dd	-0.048149932
141	0xbde4df5c	-0.11175415
142	0x3e6a25e6	0.2286602
143	0x3e4dd2ad	0.20099898
144	0x3ea532ea	0.32265407
145	0x3e99bc9f	0.3002672
146	0x3e9abe6a	0.302234
147	0xbe58c3c3	-0.21168427
148	0xbf54460c	-0.82919383
149	0x3e85e1ac	0.26148736
150	0xbe8ed21f	-0.27894685
151	0x3c261c57	0.010138593
152	0x3eb75aed	0.35811558
153	0x3ea94adb	0.33064923
154	0xbcf0bffe	-0.029388424
155	0xbee5aeca	-0.44859916
156	0x3d53ea58	0.05173716
157	0x3d1e7600	0.038686752
158	0xbda9d2cc	-0.082921594
159	0x3d69b9d0	0.05706197
160	0xbd0c2228	-0.03421226
161	0xbcbd75b0	-0.023127407
162	0xbe44d79c	-0.19222873
163	0x3d84a78c	0.064772695
164	0xbe87fc15	-0.2655951
165	0xbd76b498	-0.06023082
166	0xbe3a0228	-0.18164885
167	0x3ce993e0	0.028512895
168	0x3e26f7d9	0.16305484
169	0xbd916f2d	-0.07101283
170	0x3ea51079	0.3223913
171	0x3e683d95	0.22679742
172	0x3e7cc581	0.24684717
173	0x3ebb2b26	0.36556357
174	0x3e3442e2	0.17603639
175	0xbf58a7bd	-0.8463095
176	0x3d994f53	0.07485833
177	0xbf158bff	-0.5841674
178	0xbe8cc81c	-0.2749642
179	0x3da7b579	0.0818891
180	0x3e963598	0.29337764
181	0x3f0d9769	0.5530916
182	0x3dfd97ea	0.12382491
183	0xbe501176	-0.20319161
184	0xbe6ce80d	-0.23135395
185	0xbedc1a50	-0.42988825
186	0x3e7318eb	0.23739974
187	0xbe4984a1	-0.196795
188	0xbf2375fd	-0.6385191
189	0x3eb76c63	0.3582488
190	0x3e060017	0.13085972
191	0xbf03e897	-0.5152678
192	0xbe8fe85b	-0.2810696
193	0x3e3cffca	0.18456951
194	0x3e68d522	0.22737554
195	0xbe72afb6	-0.23699841
196	0x3ed57f26	0.4169857
197	0x3ef258c0	0.47333336
198	0x3ee5af9d	0.44860545
199	0xbe91b83b	-0.2846087
200	0xbb907262	-0.0044081667
201	0x3d3659c8	0.044519216
202	0x3c21c986	0.009874707
203	0xbef2da00	-0.47431946
204	0xbed702c3	-0.41994295
205	0x3dbfb2fc	0.093603104
206	0xbe22d2af	-0.15900682
207	0x3e558d5b	0.20854704
208	0xbe55ad3f	-0.2086687
209	0x3e2a36bf	0.16622446
210	0x3dd219e9	0.10258848
211	0xbef2d932	-0.47431332
212	0xbd9292b8	-0.07156891
213	0xbdd0278c	-0.10163793
214	0x3b8e38e5	0.0043402785
215	0xbe3a0570	-0.18166137
216	0xbebc503e	-0.3677997
217	0x3f17ac4b	0.59247273
218	0xbeb401de	-0.35157675
219	0xbf3c93b3	-0.7366287
220	0xbe037c94	-0.12840492
221	0xbed56f6d	-0.41686574
222	0xbc0d7622	-0.008634122
223	0x3d3a8873	0.045540284
224	0xbea16568	-0.3152268
225	0x3eb3293d	0.349924
226	0x3c15fb3e	0.009154139
227	0x3e396467	0.18104707
228	0x3bc5aa7a	0.0060322853
229	0x3eaa6fe7	0.332885
230	0xbe3592cd	-0.17731781
231	0x3e8b8e6f	0.27257106
232	0x3dbb6e9a	0.09151955
233	0xbebe6ffd	-0.37194815
234	0x3d7cb885	0.06169941
235	0x3d06fe2d	0.032957245
236	0xbd5f4b3f	-0.05451512
237	0x3efb9695	0.49138322
238	0xbe6b5dac	-0.22984952
239	0x3d02a57d	0.031896103
240	0x3ee7302a	0.45153934
241	0x3f1170af	0.56812567
242	0xbc901e99	-0.017592715
243	0xbd10a457	-0.035312977
244	0xbe8ac9cb	-0.2710708
245	0xbe922c14	-0.28549254
246	0xbd8a8fc3	-0.067657016
247	0xbd72423e	-0.059145205
248	0x3e201f84	0.15637022
249	0x3e1f305d	0.15545793
250	0xbe1204fc	-0.14259714
251	0xbed2c69d	-0.41167155
252	0x3f35d1c6	0.71023214
253	0xbe070303	-0.13184743
254	0xbe67bc89	-0.22630514
255	0xbece65cf	-0.4031205

net.0.bias f4 [64]
0	0x3da372fd	0.07980917
1	0x3ee910e0	0.45520687
2	0x3e55304a	0.20819202
3	0x3da2e845	0.07954458
4	0xbe7723eb	-0.24134795
5	0x3dd0d296	0.10196416
6	0x3e539eb3	0.20666008
7	0xbe02b2b0	-0.12763476
8	0xbd990ebb	-0.07473513
9	0x3bf0ad65	0.007344889
10	0x3e131823	0.14364676
11	0xbe43262f	-0.19057535
12	0xbe7a7489	-0.24458517
13	0xbe1961b3	-0.14978676
14	0xbe3de351	-0.18543746
15	0x3e163236	0.14667591
16	0xbe2bb32d	-0.16767569
17	0xbc93f328	-0.018060282
18	0x3dd2f981	0.10301495
19	0x3d8e5476	0.069497034
20	0x3e3b8a48	0.18314469
21	0x3c1e556e	0.009663923
22	0xbda691cd	-0.08133278
23	0x3d2b2063	0.041778933
24	0xbe8ecde4	-0.27891457
25	0x3e1f7eff	0.15575789
26	0xbd8f6bd9	-0.07002992
27	0x3d4cbb8c	0.049983546
28	0x3d9d0a05	0.07667927
29	0x3e7edf35	0.24889834
30	0xbd9d68fc	-0.0768604
31	0x3e7f1fb9	0.24914445
32	0xbe5574cc	-0.20845336
33	0xbdd74975	-0.10512058
34	0xbea8feb5	-0.33006826
35	0x3dbdabe0	0.09261298
36	0x3f01f5a1	0.50765425
37	0x3e8c5296	0.27406758
38	0x3e1102ab	0.14161174
39	0x3dded0b1	0.108796485
40	0x3e0c951f	0.1372876
41	0x3ea8f9f4	0.330032
42	0x3cddd303	0.027078157
43	0x3c48d224	0.012257133
44	0x3d75b758	0.059989303
45	0xbe971332	-0.29506832
46	0xbd251a77	-0.040308442
47	0x3ed37d2b	0.41306433
48	0x3e95d86b	0.29266676
49	0xbeac0951	-0.33600858
50	0xbe8d0147	-0.27540037
51	0x3da7bd5b	0.081904136
52	0xbe483ea4	-0.19555146
53	0x3dad699c	0.08467409
54	0x3d5c9ac7	0.053858545
55	0xbdf812d5	-0.12112967
56	0xbf0be405	-0.54644805
57	0x3dfb6e79	0.1227693
58	0xbac23727	-0.0014817462
59	0xbd6fd651	-0.058553997
60	0xbe5adf71	-0.21374299
61	0xbe8cb330	-0.2748046
62	0xbe14ce57	-0.14531837
63	0xbc9ac604	-0.01889325

net.2.weight f4 [32, 64]
0	0xbca910c8	-0.020637885
1	0x3dd52029	0.10406525
2	0xbe26364b	-0.16231649
3	0x3e580fa7	0.21099721
4	0x3d626529	0.055272255
5	0x3f4abb8d	0.7919243
6	0xbe0abde8	-0.13549006
7	0xbe844ca0	-0.2583971
8	0x3f1aeda9	0.6051889
9	0xbd8f6b5a	-0.070028976
10	0x3d3f2945	0.046670217
11	0xbebd5904	-0.36981976
12	0x3d9f8a54	0.07790056
13	0x3b859860	0.0040770024
14	0xbe16f235	-0.14740832
15	0xbec61f5d	-0.38695803
16	0xbc6caae3	-0.014445039
17	0xbe4b8ebd	-0.19878669
18	0xbf7906d9	-0.97276074
19	0x3e59f560	0.2128501
20	0x3e42957e	0.19002339
21	0x3e2b0485	0.16700943
22	0xbcdfef79	-0.02733587
23	0xbc8c9354	-0.017160095
24	0x3ca73938	0.020413026
25	0x3d1a2233	0.03763027
26	0xbe3ce912	-0.18448284
27	0xbf29f3dc	-0.66387725
28	0xbe83cff7	-0.25744602
29	0x3e2583bb	0.16163532
30	0xbd087593	-0.033315253
31	0x3ea7cbd7	0.32772705
32	0xbd98925a	-0.07449789
33	0x3e4e72ed	0.20161028
34	0x3eef57a7	0.4674656
35	0x3e9abad5	0.30220667
36	0xbf29753c	-0.6619451
37	0x3e28bcfd	0.16478343
38	0x3c925557	0.017862959
39	0x3e06d964	0.13168865
40	0x3de9f72f	0.114241
41	0xbe8ffb54	-0.28121436
42	0xbd83427b	-0.064091645
43	0x3ddbc743	0.107313655
44	0xbd62f01f	-0.05540478
45	0xbbf3608e	-0.0074272817
46	0x3f0a71b0	0.54079723
47	0x3ea72e4e	0.32652515
48	0x3f085879	0.5326
49	0x3ef2ecce	0.47446293
50	0x3df840fa	0.12121768
51	0xbc9b5503	-0.018961435
52	0x3cac793a	0.0210539
53	0xbe534ace	-0.20634004
54	0x3dd53d93	0.10412135
55	0xbbea2d20	-0.0071464926
56	0x3e2031d6	0.15644011
57	0x3e612b3f	0.21989153
58	0x3e59b86e	0.2126176
59	0x3ea2e528	0.31815457
60	0xbe31854d	-0.17336006
61	0xbd14f91c	-0.03637038
62	0xbf79fc42	-0.9765054
63	0x3e6d937e	0.23200795
64	0x3e045199	0.12921752
65	0xbe14a800	-0.14517212
66	0x3d1d42d7	0.03839382
67	0x3dc3a77e	0.09553431
68	0x3e683029	0.22674622
69	0x3eb113cf	0.34585425
70	0x3e9fdad6	0.31221646
71	0x3efb6cef	0.49106547
72	0xbe7364b6	-0.23768887
73	0x3b5cb264	0.0033675665
74	0xbe78494d	-0.24246712
75	0x3e9df89c	0.30853736
76	0xbe300724	-0.17190224
77	0x3d5d7224	0.05406393
78	0x3e1497e5	0.14511068
79	0x3d38566c	0.045004293
80	0x3e5eea27	0.2176901
81	0xbe17740e	-0.14790365
82	0x3ece92ea	0.40346462
83	0xbe1d861d	-0.15383191
84	0xbccb919d	-0.024849707
85	0x3eda9773	0.42693672
86	0xbf5d16f8	-0.8636317
87	0x3e0ed5a6	0.13948688
88	0x3dc8bc80	0.098015785
89	0x3e7c9c0b	0.246689
90	0x3e2e3847	0.17013656
91	0x3e205112	0.15655926
92	0x3bdb8b8a	0.006699984
93	0x3e42484f	0.18972896
94	0xbe4c6c4d	-0.19963188
95	0xbdbbbb8f	-0.09166633
96	0xbd37c9c8	-0.044870168
97	0x3e185e31	0.14879681
98	0xbe750245	-0.23926647
99	0x3e7cd215	0.24689515
100	0x3effd865	0.49969783
101	0x3cf2a3a1	0.02961904
102	0x3d6bee13	0.057600092
103	0x3e5c3f00	0.21508408
104	0x3e499011	0.19683863
105	0xbe3a9a7b	-0.18222992
106	0xbd356ee8	-0.04429522
107	0x3daa4739	0.08314366
108	0x3e25a2d8	0.16175401
109	0x3e9d1e7b	0.30687317
110	0x3b2a364d	0.0025972307
111	0xbe459661	-0.19295646
112	0xbdc164a7	-0.09443026
113	0xbe271f3b	-0.16320507
114	0x3e32842d	0.17433234
115	0x3dae2676	0.085034296
116	0xbbd90bf6	-0.0066237403
117	0x3c9b00e6	0.018921327
118	0xbe10c5ee	-0.14138004
119	0x3d2f3488	0.042774707
120	0x3ef5041b	0.47854695
121	0xbebb087a	-0.36529905
122	0xbe025368	-0.1272713
123	0xbd1b876d	-0.03797095
124	0x3d640c2d	0.055675674
125	0x3dc9515a	0.0982997
126	0x3d30a500	0.043126106
127	0x3de18cf0	0.1101321
128	0x3f203cb7	0.62592643
129	0x3e1e04de	0.15431544
130	0xbcbfcad1	-0.02341214
131	0x3e65dca6	0.22447452
132	0xbea96378	-0.330837
133	0x3db19d48	0.08672577
134	0x3e9487f8	0.29009986
135	0x3d073e59	0.033018444
136	0x3cc6508c	0.02420833
137	0x3e3e25ac	0.18569058
138	0x3e2fb87c	0.17160219
139	0xbebd10b9	-0.3692682
140	0x3d4af6e0	0.049551845
141	0x3dc29a94	0.0950214
142	0x3e3e3f2a	0.18578783
143	0xbe616fe9	-0.22015347
144	0x3e995a13	0.29951534
145	0x3e305f70	0.17223907
146	0xbf9a192b	-1.2038931
147	0xbf3d6d17	-0.7399458
148	0x3e606a97	0.21915661
149	0x3dfc0d15	0.12307183
150	0x3ef07626	0.4696514
151	0x3e1fb56b	0.15596549
152	0x3ce2c617	0.027682347
153	0x3d852f20	0.06503129
154	0x3e0940c7	0.13403617
155	0x3d971356	0.07376735
156	0xbe0bca41	-0.13651372
157	0x3eec173b	0.46111473
158	0xbe28ffe3	-0.16503863
159	0xbe12e563	-0.14345317
160	0xbd2043a0	-0.039126992
161	0xbe9bc300	-0.3042221
162	0x3eee1311	0.46498922
163	0x3edbc870	0.4292636
164	0xbf6c095a	-0.9220177
165	0x3dfd6223	0.12372234
166	0x3d8f43aa	0.06995328
167	0x3e2b762a	0.16744295
168	0x3e559b7d	0.20860095
169	0xbe7c5708	-0.24642575
170	0x3e29a89c	0.16568226
171	0x3dcfd0ff	0.10147285
172	0x3dc136eb	0.09434303
173	0x3e999af9	0.30001047
174	0x3e86f0ab	0.2635549
175	0x3ed2a4ee	0.41141456
176	0x3ec0b232	0.37635952
177	0x3e4730e3	0.19452243
178	0x3ebd0b4f	0.3692269
179	0x3cad7372	0.021173213
180	0xbdebad75	-0.11507694
181	0xbea5798e	-0.323193
182	0xbebe93bd	-0.3722209
183	0xbe03d58e	-0.12874433
184	0x3e1aa59e	0.1510224
185	0xbe8c09a3	-0.27351102
186	0x3f00ba54	0.50284314
187	0x3f397428	0.72442865
188	0x3e10810a	0.14111724
189	0xbdf7e200	-0.12103653
190	0xbe730150	-0.2373097
191	0x3db159a1	0.086596735
192	0x3ee7bdbe	0.4526195
193	0x3d8b8fef	0.068145625
194	0xbe582a63	-0.21109919
195	0xbd81dd33	-0.063410185
196	0x3f16da7c	0.5892713
197	0xbdd66595	-0.10468594
198	0xbe3878f6	-0.18014893
199	0xbebc1f70	-0.36742735
200	0x3db2d0f7	0.08731263
201	0xbca052cc	-0.01957073
202	0xbe1f163b	-0.15535824
203	0xbd088089	-0.033325706
204	0xbd70d886	-0.058800243
205	0xbdd6e172	-0.10492219
206	0xbd2862b1	-0.041109744
207	0x3ea96390	0.33083773
208	0x3ec21cb7	0.37912533
209	0x3eaf5c21	0.34249976
210	0x3f6b1cc3	0.9184076
211	0x3ebd1dc5	0.36936775
212	0xbda0f35e	-0.078589186
213	0xbe4a1e02	-0.1973801
214	0x3e8817f7	0.26580784
215	0x3dd4ec87	0.103966765
216	0xbcc0c1c8	-0.023529902
217	0x3d49c985	0.04926445
218	0xbe21f766	-0.15817031
219	0x3e779950	0.24179578
220	0xbca37dc9	-0.01995744
221	0xbd790333	-0.060794067
222	0xbe22e658	-0.15908182
223	0x3eb6eca0	0.35727406
224	0xbdc6bc20	-0.09703851
225	0x3db70177	0.08935826
226	0xbbbf2596	-0.005833338
227	0x3aae0590	0.0013276804
228	0xbcef1b97	-0.02918796
229	0x3d1e2536	0.038609706
230	0x3dfb428e	0.12268554
231	0x3e3687b9	0.17825212
232	0x3c2e97c2	0.010656299
233	0x3cb60ee8	0.022223905
234	0x3e1e1791	0.15438677
235	0x3bee9e9e	0.0072820922
236	0xbdd5f663	-0.10447385
237	0x3ed1d3b1	0.4098182
238	0x3e167f1f	0.1469693
239	0x3d2bb42f	0.041919883
240	0xbc5a45eb	-0.013322334
241	0xbeb0cb2b	-0.34530005
242	0x3e41af42	0.18914512
243	0x3e6412dd	0.22272821
244	0x3d061c99	0.032742117
245	0x3db36dee	0.08761202
246	0x3ecc9f8d	0.39965478
247	0x3f063f18	0.52440023
248	0xbd946239	-0.07245297
249	0x3f29aa29	0.6627527
250	0x3c9f5e17	0.019454045
251	0x3c57f2f9	0.013180488
252	0x3d632ffa	0.055465676
253	0x3d91a526	0.07111578
254	0x3f0ec690	0.5577173
255	0x3dbdd69b	0.09269448

net.2.bias f4 [32]
0	0x3cd436f3	0.025905108
1	0x3be1a79f	0.006886437
2	0x3b85cb5a	0.0040830793
3	0x3dd1d364	0.10245398
4	0xbd0fc65a	-0.035101272
5	0x3e6f5221	0.23371173
6	0xbde851d6	-0.11343734
7	0x3de21fc1	0.11041213
8	0xbe15f26d	-0.1464326
9	0xbd836528	-0.064157784
10	0x3d700261	0.05859602
11	0x3debf512	0.11521353
12	0x3e54978e	0.20760939
13	0x3e2d40b3	0.16919212
14	0xb9afc72a	-0.0003352699
15	0xbdade04c	-0.08490047
16	0x3d065bd4	0.032802418
17	0x3e2f769a	0.17135087
18	0x3dd6767e	0.10471819
19	0xbcaaf91b	-0.020870736
20	0x3d5b8033	0.053589057
21	0x3db2dc0b	0.08733376
22	0xbd758f7b	-0.059951287
23	0x3d9b3b1d	0.07579634
24	0x3ddfcd95	0.109278835
25	0x3d5dd36b	0.054156702
26	0xbbb2089c	-0.005433155
27	0x3d9babb0	0.07601106
28	0x3d66006f	0.056152757
29	0x3e08c5ba	0.13356677
30	0xbdb4f28e	-0.08835326
31	0x3d2c99bd	0.042138804

net.4.weight f4 [4, 32]
0	0x3dd92dc2	0.10604431
1	0xbd10b48b	-0.03532843
2	0x3da6a1b5	0.08136312
3	0xbef27868	-0.47357488
4	0x3d995615	0.07487122
5	0xbe71ba07	-0.2360612
6	0x3d96256c	0.073313564
7	0xbf009281	-0.5022355
8	0xbd7daa4f	-0.061929997
9	0x3eacc8d3	0.33746967
10	0xbc4f1b8d	-0.012640846
11	0xbd46bb1a	-0.048518278
12	0x3d0bebac	0.0341603
13	0x3d49edf7	0.049299207
14	0xbc211dee	-0.009833796
15	0x3c847c22	0.016172472
16	0xbea12fd0	-0.3148179
17	0xbef1565b	-0.47136196
18	0x3e06b7f2	0.13156107
19	0x3ee4419e	0.44581312
20	0xbf18bb96	-0.59661233
21	0x3dfa2673	0.12214365
22	0xbd267a4d	-0.04064398
23	0x3e541716	0.20711932
24	0xbe72a26a	-0.23694769
25	0xbf9d5105	-1.229035
26	0x3dd56680	0.10419941
27	0xbeb7d1d4	-0.35902274
28	0xbd8f4807	-0.0699616
29	0xbe00c6b2	-0.12575796
30	0x3e6e3d09	0.2326547
31	0x3e676465	0.22596891
32	0x3d82cd61	0.06386829
33	0xbdd204d2	-0.10254826
34	0xbf3b499a	-0.7315918
35	0x3e6cbcef	0.23118947
36	0x3d199056	0.037491165
37	0xbb98580a	-0.004649167
38	0xbd898d9b	-0.06716462
39	0x3e7a4bc0	0.24442959
40	0xbd9ea421	-0.07746149
41	0x3eae854b	0.3408607
42	0xbd850d62	-0.06496693
43	0xbe7d3be3	-0.24729876
44	0xbe90b5d2	-0.28263718
45	0xbf70d02f	-0.9406766
46	0x39da322f	0.0004161759
47	0xbdb31623	-0.087444566
48	0x3e56f5ff	0.20992278
49	0x3e7768f5	0.24161132
50	0xbe107500	-0.14107132
51	0x3e0578d8	0.1303438
52	0x3e6ece32	0.23320845
53	0xbe932a2c	-0.28743112
54	0xbd8466f8	-0.06464952
55	0xbb875bbb	-0.004130808
56	0x3e25f9f0	0.16208625
57	0x3e514963	0.20438151
58	0xbd1a90be	-0.037735693
59	0x3d39dde2	0.04537762
60	0xbebaa65e	-0.36455053
61	0x3d323589	0.043508086
62	0xbf09fb18	-0.53898764
63	0x3e9f14a9	0.3107045
64	0x3da131c6	0.07870822
65	0xbecc3468	-0.39883733
66	0x3e4c2aed	0.1993825
67	0x3dfe84f1	0.124277
68	0x3d8d5d37	0.06902545
69	0xbff2ab44	-1.8958516
70	0x3dad6adf	0.0846765
71	0xbd38c31c	-0.045107946
72	0x3c9fea67	0.019520951
73	0xbf1ce276	-0.6128305
74	0xbcc15876	-0.023601752
75	0xbe361ace	-0.17783663
76	0xbdf53258	-0.11972493
77	0x3d9cdbfd	0.07659147
78	0xbceaacb0	-0.028646797
79	0x3bc9b3ec	0.0061554816
80	0x3e64feaf	0.22362779
81	0x3e8c1e38	0.27366805
82	0x3d245bdf	0.040126678
83	0xbe962d5f	-0.2933149
84	0x3e6ef1f7	0.2333449
85	0x3dab83e5	0.08374766
86	0xbda4e9b2	-0.08052386
87	0xbe94fa4c	-0.2909721
88	0x3e5002d4	0.20313579
89	0xbcce0d84	-0.02515293
90	0xbe07566e	-0.13216564
91	0xbe4e1918	-0.2012676
92	0x3d430f4a	0.047622003
93	0x3e192a60	0.14957571
94	0x3e910e16	0.2833106
95	0x3e964f38	0.29357314
96	0xbf5ad72f	-0.85484594
97	0xbc450bdd	-0.012026754
98	0xbe92c2ec	-0.2866434
99	0x3e2037ec	0.15646333
100	0xbdf81884	-0.12114051
101	0x3ed0086a	0.4063142
102	0xbe24a0da	-0.16076985
103	0xbe3f67c6	-0.1869193
104	0xbe1cbb8d	-0.1530592
105	0xbe77f82d	-0.24215765
106	0x3db65728	0.089033425
107	0x3d6573ef	0.056018766
108	0x3e8812a4	0.26576722
109	0x3e3d5ee8	0.18493235
110	0xbda45323	-0.080236696
111	0xbd55d1a3	-0.05220188
112	0x3e2461d3	0.16052942
113	0x3dfdda06	0.123951
114	0x3e7773a3	0.24165206
115	0xbc09e12d	-0.0084155025
116	0xbe0d0eaf	-0.13775133
117	0x3e3ced52	0.18449906
118	0x3dfe2ca4	0.12410858
119	0x3e364095	0.17798074
120	0xbd8962aa	-0.06708272
121	0xbd895593	-0.06705775
122	0x3d020597	0.031743612
123	0x3e5594ab	0.20857494
124	0x3d1e398a	0.038629092
125	0xbf9e9470	-1.238905
126	0xbeac3bbe	-0.3363933
127	0xbf813352	-1.0093787

net.4.bias f4 [4]
0	0xbdb038cd	-0.08604584
1	0xbc843649	-0.016139166
2	0x3cf29862	0.029613677
3	0x3ae2cb2d	0.0017302983
