model/ppo_finetuned_policy.pth (torch, 14986 bytes, 6 tensors)

net.0.weight f4 [64, 12]
-0.8542233 -0.38948488 -1.1702197 0.5972544 0.3214937 0.030050455 -0.18039264 -1.3648288
0.3833706 0.44798252 0.633123 0.4180013 -0.46806622 -0.198676 0.41148975 0.002696797
0.072705254 -0.9164518 -0.34627485 -0.6651452 0.058676675 0.38181755 -0.14028789 0.6787959
0.2831825 0.55772173 0.57100254 0.37193218 -0.103547975 0.9054915 1.0287824 0.7450971
-0.07063499 0.67165965 0.7931578 -0.83535045 -0.1946514 0.0770919 -0.30156276 -0.26229003
0.6052516 0.6193989 -0.19453606 0.65666676 0.27804446 0.7076131 0.20530811 0.31816807
0.060494736 0.27096328 -0.2893061 -0.70775664 0.40894824 -0.4708261 -0.81816196 -0.3494806
0.2250899 -0.5173662 -0.4153094 -0.15761463 -0.39221817 0.35178044 -0.29907036 -1.9260304
-0.35479048 -1.6452725 0.17358212 0.17419928 -0.16363461 0.68699867 -0.97474366 0.11791812
0.54495955 -0.8152241 -0.57363296 -0.5624626 -1.0876728 0.011607302 0.5629105 -0.028258173
-0.6581341 -0.5950859 0.59053785 0.34874606 0.21940154 -0.81158274 -0.13953835 0.21535084
-0.24671638 -0.2987857 -0.6708751 -0.582133 0.22944835 0.21219915 -0.5806698 -0.28857705
-0.20858592 -0.9384733 -0.81893003 0.6613093 0.1206425 -0.06246 -0.40875742 0.06509186
-0.24855934 0.643051 -0.15482593 0.59415686 -0.42600057 -0.36261404 -1.2593307 -0.3271399
-0.4869774 -0.64003426 -0.0016180776 0.037910275 0.59973305 0.3395852 0.46916512 -0.2523973
0.7438282 0.47152293 -0.81013215 -0.8434822 -1.2493659 -0.0606573 -0.50011116 0.4428906
0.22154467 -0.053283025 -0.23525058 0.6452333 -0.38610741 0.23002699 0.0611702 0.8004742
0.25716853 0.43130186 0.55439436 -0.7799855 0.19579531 -0.018890066 0.42955908 -0.1819843
0.22327176 0.09196263 0.09777684 -0.37229696 -0.9508327 0.08660287 -0.54705024 -0.007797079
0.03897648 0.28010187 0.0677485 -0.44519466 0.05173716 0.038686752 -0.082921594 0.05706197
-0.03421226 -0.023127407 -0.19222873 0.064772695 -0.2655951 -0.06023082 -0.18164885 0.028512895
0.28955 -0.32730725 0.2524686 -0.25300887 0.04002373 -0.1523998 0.023987062 -0.8538445
0.038035166 -0.22957161 -0.5705846 -0.22799692 0.056979407 0.7560256 -0.8985058 -0.4072011
-0.26641825 -0.3332566 0.11079543 -0.29857877 -0.49712104 0.5367951 0.21139762 0.3492586
-0.33498156 -0.16127217 0.22871292 0.05622285 0.19264305 0.5976556 0.28321478 -1.7685376
0.30947956 0.38748074 -0.32018146 0.020076215 -0.6961391 0.3834765 -0.26087126 0.6937518
-0.22768049 0.4373999 0.17006193 -1.1992168 0.36541158 -1.0635712 -0.3247916 -0.11411412
-0.9184478 0.62896734 -0.39773163 -1.4794078 -0.62241507 -0.817286 0.19849318 -0.06712726
-0.0022039309 -0.06128163 -0.2525428 0.31062177 -0.7576709 0.8387721 -0.5986633 0.3805823
-0.22020565 -1.2871612 -0.07076745 -0.123967305 -0.055525582 -0.17421412 -0.3491974 0.7304404
0.76544434 0.5992683 0.1348479 0.009753594 -0.28239688 -0.05758584 -1.2077241 0.22822316
-0.4733596 0.23784408 0.13764775 -0.4524994 0.7003979 0.3562736 -0.10051164 -0.19505408
00000000: 61ae 5abf 906a c7be c2c9 95bf aae5 183f
00000010: d29a a43e 5f2c f63c d9b8 38be b6b2 aebf
00000020: 2749 c43e f75d e53e 5914 223f 4404 d63e
00000030: 60a6 efbe b971 4bbe c9ae d23e bfbc 303b
00000040: 7ee6 943d 969c 6abf f04a b1be f546 2abf
00000050: f456 703d 977d c33e a1a7 0fbe 91c5 2d3f
00000060: 4cfd 903e dac6 0e3f 392d 123f e56d be3e
00000070: f610 d4bd 4ace 673f 24af 833f afbe 3e3f
00000080: 14a9 90bd e3f1 2b3f 640c 4b3f 87d9 55bf
00000090: b252 47be 5ce2 9d3d 6f66 9abe e14a 86be
000000a0: c5f1 1a3f ed90 1e3f 7634 47be 501b 283f
000000b0: d85b 8e3e 2226 353f 4a3c 523e ede6 a23e
000000c0: 54c9 773d b3bb 8a3e ee1f 94be 8a2f 35bf
000000d0: aa61 d13e 1e10 f1be 1073 51bf 1fef b2be
000000e0: f77d 663e 1c72 04bf 6fa3 d4be bb65 21be
000000f0: d2d0 c8be 911c b43e c01f 99be 2a88 f6bf
00000100: 19a7 b5be 4a98 d2bf 83bf 313e 4c61 323e
00000110: d58f 27be 25df 2f3f cd88 79bf 0e7f f13d
00000120: 7882 0b3f 87b2 50bf 9cd9 12bf 8dfd 0fbf
00000130: dd38 8bbf 8e2c 3e3c e71a 103f af7d e7bc
00000140: 7a7b 28bf 8d57 18bf 7d2d 173f d88e b23e
00000150: ccaa 603e e3c3 4fbf 24e3 0ebe ee84 5c3e
00000160: 38a3 7cbe 70fa 98be 78be 2bbf ab06 15bf
00000170: 82f4 6a3e bc4a 593e c7a6 14bf 5fc0 93be
00000180: 8c97 55be c93f 70bf 66a5 51bf 914b 293f
00000190: 6a13 f73d 0fd6 7fbd a748 d1be e24e 853d
000001a0: 5786 7ebe fe9e 243f b08a 1ebe aa1a 183f
000001b0: bf1c dabe 8ca8 b9be c031 a1bf e27e a7be
000001c0: 1a55 f9be 49d9 23bf ad15 d4ba ce47 1b3d
000001d0: 1b88 193f 1dde ad3e 6936 f03e 383a 81be
000001e0: 866b 3e3f 746b f13e d264 4fbf 73ee 57bf
000001f0: 39eb 9fbf ca73 78bd 4907 00bf 8fc2 e23e
00000200: 9bdc 623e 4d3f 5abd 87e5 70be 022e 253f
00000210: dfaf c5be 328c 6b3e 9b8d 7a3d e1eb 4c3f
00000220: 98ab 833e 99d3 dc3e caec 0d3f 21ad 47bf
00000230: 917e 483e 57bf 9abc 2bef db3e 185a 3abe
00000240: 5aa1 643e e756 bc3d 393f c83d b59d bebe
00000250: c669 73bf d85c b13d 7c0b 0cbf a47e ffbb
00000260: cda5 1f3d 8369 8f3e babf 8a3d 8ef0 e3be
00000270: 58ea 533d 0076 1e3d ccd2 a9bd d0b9 693d
00000280: 2822 0cbd b075 bdbc 9cd7 44be 8ca7 843d
00000290: 15fc 87be 98b4 76bd 2802 3abe e093 e93c
000002a0: e63f 943e d194 a7be 9043 813e 618a 81be
000002b0: ecef 233d b10e 1cbe 8480 c43c 8e95 5abf
000002c0: c3ca 1b3d d214 6bbe d511 12bf 0678 69be
000002d0: 3d63 693d e58a 413f 7a04 66bf aa7c d0be
000002e0: f967 88be 9ca0 aabe b7e8 e23d 51df 98be
000002f0: a686 febe 676b 093f 9e78 583e 06d2 b23e
00000300: b482 abbe 8824 25be b833 6a3e ee49 663d
00000310: 3844 453e f5ff 183f 8701 913e 715f e2bf
00000320: 1b74 9e3e e063 c63e d3ee a3be e076 a43c
00000330: 2c36 32bf 0857 c43e eb90 85be b899 313f
00000340: 1325 69be e1f2 df3e b724 2e3e f07f 99bf
00000350: 3a17 bb3e 1a23 88bf 164b a6be aab4 e9bd
00000360: 651f 6bbf 0104 213f 7ba3 cbbe 3c5d bdbf
00000370: 9856 1fbf a839 51bf cc41 4b3e 047a 89bd
00000380: d36f 10bb 7202 7bbd 4a4d 81be d109 9f3e
00000390: b8f6 41bf c5b9 563f ff41 19bf afdb c23e
000003a0: 977d 61be b3c1 a4bf 86ee 90bd 92e2 fdbd
000003b0: cb6e 63bd 3065 32be 00ca b2be 24fe 3a3f
000003c0: 29f4 433f a669 193f 9115 0a3e 8acd 1f3c
000003d0: 5396 90be 21df 6bbd b496 9abf 55b3 693e
000003e0: 315c f2be 668d 733e 88f3 0c3e 00ae e7be
000003f0: 474d 333f 7e69 b63e 0cd9 cdbd 42bc 47be

net.0.bias f4 [64]
0.070309445 0.22103563 0.8526997 0.2824837 -0.47417665 0.22770813 -0.17044288 -0.40145004
0.0392348 -0.18873 -0.022272853 -0.09808793 -0.4721131 -0.14978676 -0.49365133 -0.033379998
-0.20532201 -0.03730321 0.083172604 0.23255616 -0.11424428 0.15507837 0.0077227843 -0.03984055
-0.27891457 0.1460751 -0.040037513 0.11350542 0.22732346 0.64329994 0.38604012 0.52976894
-0.20845336 -0.47839028 0.115144216 0.19478434 0.41405886 0.19172461 0.30537248 0.02045513
0.39886588 -0.19240837 -0.18971193 -0.3915013 -0.015061425 -0.1690029 -0.20525861 0.12476451
-0.017637437 -0.34395203 0.05620729 0.08334485 -0.19555146 -0.08394843 -0.061962817 0.12592179
-0.6814217 -0.14273901 -0.20929347 0.46826664 -0.15541476 -0.2748046 0.22893053 -0.011659623
00000000: 66fe 8f3d 2a57 623e 874a 5a3f b4a1 903e
00000010: 48c7 f2be 522c 693e 9488 2ebe dc8a cdbe
00000020: abb4 203d 7042 41be 8f75 b6bc 53e2 c8bd
00000030: cfb8 f1be b361 19be debf fcbe 77b9 08bd
00000040: ef3f 52be 40cb 18bd 6656 aa3d 3423 6e3e
00000050: e8f8 e9bd ddcc 1e3e 690f fd3b d82f 23bd
00000060: e4cd 8ebe b694 153e 60fe 23bd 8875 e83d
00000070: 7bc7 683e 4eaf 243f 0da7 c53e f09e 073f
00000080: cc74 55be 92ef f4be bbd0 eb3d 8c75 473e
00000090: 86ff d33e 7553 443e c859 9c3e 8491 a73c
000000a0: 2638 cc3e b306 45be d843 42be dc72 c8be
000000b0: 32c4 76bc 190f 2dbe 502f 52be 8984 ff3d
000000c0: 637c 90bc 7b1a b0be 9e39 663d b4b0 aa3d
000000d0: a43e 48be 28ed abbd b9cc 7dbd a4f1 003e
000000e0: a771 2ebf 2d2a 12be 0751 56be a5c0 ef3e
000000f0: 0c25 1fbe 30b3 8cbe c46c 6a3e 0108 3fbc

net.2.weight f4 [32, 64]
0.1869203 0.03223372 -0.25568712 0.049740333 0.17830732 0.18401109 -0.014271292 -0.5013098
0.5931499 -0.38391146 -0.022106245 -1.1305871 -0.07332362 0.0040770024 -0.2317023 0.18376392
-0.5699056 -0.93490297 -0.66484576 0.58569455 0.48204923 -0.15274242 -0.015241302 0.80173016
0.020413026 -0.08102275 -0.28740895 -1.0047024 -0.089303814 0.06256467 -0.50381225 -0.02086048
-0.07449789 0.6320149 0.27558434 -0.20884441 -1.1130657 0.12591085 -0.40598065 -0.2257618
-0.23474348 -0.30853155 0.11570087 -0.7291428 -0.3013823 0.42430767 0.7606897 -0.7619086
0.7664597 0.525883 0.61102533 0.1214546 0.0210539 0.058347058 0.057066742 -0.14322989
0.20413445 0.02072875 0.05371928 0.0066864206 -0.43541116 -0.03637038 -0.97639865 0.58005726
-0.17197484 0.101249196 -0.58023834 -1.388823 0.010031903 1.0781877 0.79720175 0.23939005
-0.63832104 -0.23530786 0.27379465 0.536546 -0.31123018 0.05406393 0.4839316 0.747051
0.28310812 0.60277 0.31213823 -0.14218378 0.5610605 0.47477493 -0.081283346 0.7332976
0.098015785 0.20711514 0.14008595 0.099549085 0.8964409 0.9599237 -0.667103 -0.32911134
-0.044870168 0.29842135 -0.3452659 -0.12317786 0.5096684 2.493842 0.28287157 1.3067331
0.839025 0.9179225 0.060796216 0.2856921 0.38412422 -0.2833057 -0.8745274 -0.21690337
1.4179965 0.4841166 1.065414 -0.70372677 -0.0066237403 0.35454917 -0.2773461 -0.1642332
0.38524115 0.1970618 -0.07010305 -0.40333226 0.018075645 0.0982997 -0.23241043 0.2339744
1.1453894 1.1814964 -0.827704 -0.5745463 -0.9336697 -0.30515486 0.164053 -0.0929353
-0.25309405 1.1663485 0.8661367 -0.1043439 0.20806333 0.0950214 -0.0052621593 0.1579912
-0.58611417 1.1905868 -2.2369237 0.41780496 -0.38722712 0.17009443 -0.34431452 0.48977506
0.027682347 0.32009363 0.13950072 0.405241 0.36044303 1.173208 -0.5284605 -1.0654674
-0.039126992 -0.5359412 -0.05662298 0.029279523 -1.489627 1.6702963 0.124554895 0.1097932
0.37166503 -0.8199586 1.0564317 0.13453826 -0.24180742 0.53151363 1.5202628 1.5775231
0.578596 -0.20905669 3.576464 -0.04534402 -0.11507694 1.391743 -0.90203613 -0.43813568
-0.19031927 -0.009160797 0.3721578 0.5096428 -0.2569864 -0.12103653 -0.5184334 0.7444475
-0.6147293 0.7093692 -0.57154566 0.052357875 0.69841516 -0.2442809 0.9489144 -0.27444622
-0.30061698 0.15705736 -0.3694375 -0.6699167 -0.07382483 -0.10492219 -0.5840083 -0.4598131
-0.6950582 2.2698574 0.8818801 0.39595568 -0.25444168 -0.44294986 1.167014 -0.5094286
-0.023529902 2.2710989 -1.0389781 0.9166551 0.48118162 0.72323936 -0.16586848 0.56778383
-0.09703851 0.43346435 -0.45584646 -0.23063852 -0.47342512 -0.95122933 0.37797546 -1.0688863
0.93240446 -0.034961034 0.16082971 0.06707981 0.011948002 1.3879368 -0.67448497 -0.09522889
0.8750333 -1.0090863 -0.4356531 0.368329 0.032742117 -0.50281924 -0.1218119 0.6035205
-0.37213248 0.5978799 0.9006857 0.09059636 -1.9594102 0.07111578 -0.16943823 0.5075592
00000000: 0968 3f3e 8107 043d 6ce9 82be 85bc 4b3d
00000010: 3296 363e 676d 3c3e 23d2 69bc d755 00bf
00000020: acd8 173f 0b90 c4be 2818 b5bc 14b7 90bf
00000030: b22a 96bd 6098 853b 5e43 6dbe 9c2c 3c3e
00000040: 55e5 11bf cd55 6fbf 5533 2abf 14f0 153f
00000050: 28cf f63e 8268 1cbe a7b6 79bc 303e 4d3f
00000060: 3839 a73c 41ef a5bd 4427 93be 179a 80bf
00000070: ebe4 b6bd e821 803d d7f9 00bf 99e3 aabc
00000080: 5a92 98bd bacb 213f 6419 8d3e 4fdb 55be
00000090: f078 8ebf c6ee 003e b2dc cfbe 1a2e 67be
000000a0: 9860 70be d9f7 9dbe 94f4 ec3d 1aa9 3abf
000000b0: c84e 9abe db3e d93e 8fbc 423f 710c 43bf
000000c0: b436 443f 45a0 063f 286c 1c3f 30bd f83d
000000d0: 3a79 ac3c 53fd 6e3d d1be 693d dbaa 12be
000000e0: 9f08 513e 57cf a93c bf08 5c3d c319 db3b
000000f0: 36ee debe 1cf9 14bd 43f5 79bf a27e 143f
00000100: 2c1a 30be bd5b cf3d 808a 14bf f4c4 b1bf
00000110: da5c 243c 0e02 8a3f 6a15 4c3f aa22 753e
00000120: 0269 23bf 8bf4 70be d02e 8c3e 145b 093f
00000130: 9059 9fbe 2472 5d3d e2c5 f73e bc3e 3f3f
00000140: 8cf3 903e 224f 1a3f 95d0 9f3e a098 11be
00000150: a9a1 0f3f b315 f33e e277 a6bd 64b9 3b3f
00000160: 80bc c83d fe15 543e b172 0f3e 64e0 cb3d
00000170: 277d 653f 8fbd 753f 43c7 2abf 4881 a8be
00000180: c8c9 37bd afca 983e b1c6 b0be ad44 fcbd
00000190: a179 023f 1b9b 1f40 8bd4 903e 0843 a73f
000001a0: 58ca 563f f8fc 6a3f 7405 793d 3c46 923e
000001b0: eeab c43e 720d 91be 07e1 5fbf eb1b 5ebe
000001c0: e980 b53f 22de f73e 7c5f 883f 7027 34bf
000001d0: f60b d9bb 7887 b53e 4f00 8ebe bf2c 28be
000001e0: 543e c53e 92ca 493e 3092 8fbd 9181 cebe
000001f0: 6013 943c 5a51 c93d 00fd 6dbe fc96 6f3e
00000200: 1f9c 923f 463b 973f 69e4 53bf 7715 13bf
00000210: fa04 6fbf 423d 9cbe 82fd 273e dd54 bebd
00000220: 8b95 81be e84a 953f 23bb 5d3f 41b2 d5bd
00000230: 8e0e 553e 949a c23d 316e acbb 72c8 213e
00000240: 940b 16bf 2665 983f c229 0fc0 88ea d53e
00000250: a242 c6be 3c2d 2e3e fe49 b0be ccc3 fa3e
00000260: 17c6 e23c 50e3 a33e 47d9 0e3e c07b cf3e
00000270: fd8b b83e ae2b 963f 3049 07bf 3c61 88bf
00000280: a043 20bd 7133 09bf 7fed 67bd 9cdb ef3c
00000290: 19ac bebf 45cc d53f a316 ff3d 42db e03d
000002a0: e14a be3e cfe8 51bf 2739 873f 66c4 093e
000002b0: 5d9c 77be 4711 083f f997 c23f 47ec c93f
000002c0: de1e 143f f512 56be c9e4 6440 a7ba 39bd
000002d0: 75ad ebbd a224 b23f d7eb 66bf 5253 e0be
000002e0: 0ee3 42be 2b17 16bc 788b be3e f377 023f
000002f0: b993 83be 00e2 f7bd 0db8 04bf 1d94 3e3f
00000300: e65e 1dbf 3899 353f d150 12bf 3675 563d
00000310: 56cb 323f c624 7abe 0eec 723f 3784 8cbe
00000320: 78ea 99be a5d3 203e e926 bdbe a97f 2bbf
00000330: 7931 97bd 72e1 d6bd 9181 15bf 9f6c ebbe
00000340: 56ef 31bf 5845 1140 e5c2 613f b4ba ca3e
00000350: 2e46 82be 53ca e2be b760 953f ea69 02bf
00000360: c8c1 c0bc af59 1140 3cfd 84bf e9a9 6a3f
00000370: 705d f63e 3726 393f 6dd9 29be 485a 113f
00000380: 20bc c6bd 0aef dd3e b564 e9be 812c 6cbe
00000390: c764 f2be c483 73bf 0086 c13e 44d1 88bf
000003a0: 0fb2 6e3f 4d33 0fbd 8bb0 243e 2461 893d
000003b0: 8dc1 433c eaa7 b13f 0cab 2cbf 5d07 c3bd
000003c0: 2f02 603f bd29 81bf ec0d dfbe 9e95 bc3e
000003d0: 991c 063d c3b8 00bf 8478 f9bd 5280 1a3f
000003e0: 2688 bebe a80e 193f 5793 663f 968a b93d
000003f0: f4cd fabf 26a5 913d 3781 2dbe 66ef 013f

net.2.bias f4 [32]
-0.35677925 -0.039910637 -0.1869744 0.30992928 -0.092992775 0.06790023 -0.12296408 0.21939
-0.26334387 -0.43506 0.05859602 0.02608687 0.28449094 -0.34352472 -0.0003352699 -0.08490047
-0.018115433 -0.17739333 0.15740779 0.3307781 -0.09180347 0.105274364 -0.059951287 0.20671608
0.29027104 0.089993134 -0.022219278 0.3204135 -0.13495897 0.41756114 0.08858519 -0.23918314
00000000: c5ab b6be 5679 23bd 3876 3fbe 0daf 9e3e
00000010: ff72 bebd 470f 8b3d 97d4 fbbd c6a7 603e
00000020: 02d5 86be 2fc0 debe 6102 703d 22b4 d53c
00000030: cca8 913e 79e2 afbe 2ac7 afb9 4ce0 adbd
00000040: d166 94bc 99a6 35be 822f 213e bf5b a93e
00000050: 7503 bcbd 169a d73d 7b8f 75bd 61ad 533e
00000060: 689e 943e 524e b83d 3405 b6bc 3d0d a43e
00000070: af32 0abe 93ca d53e 276c b53d 6dec 74be

net.4.weight f4 [4, 32]
0.056805447 -0.04216915 -0.11439345 -1.2770258 0.05911235 -1.3518504 0.08274967 -0.24178965
1.3117881 0.90736103 -0.012640846 0.009762137 0.19027905 -1.1986153 -0.009833796 0.016172472
-5.044105 0.3502442 0.60224104 0.84810024 1.6253871 -0.18532404 -0.04064398 0.28058514
0.8444103 -0.9625128 0.8639851 -0.12637775 0.52653486 -0.3333396 0.49848783 0.26848793
0.22116613 -0.8047255 -4.17425 -0.15874754 0.03487838 -0.2738384 -0.057658434 0.5904964
0.7992766 0.74018854 -0.06496693 0.17946395 0.17694716 -4.0236835 0.0004161759 -0.087444566
0.91425586 0.32946977 1.0562273 0.2189605 -0.22252329 -0.5341889 -0.06464952 -0.0965241
1.5430795 1.9668107 0.47691637 0.26635173 -1.7789453 0.81162107 -0.23139502 0.42439902
0.4530745 -2.561964 0.91320425 1.2177763 0.10649621 -1.7671843 0.07516564 0.069286436
1.0112284 -3.1882164 -0.023601752 0.19549637 -0.066488825 -0.5644702 -0.028646797 0.0061554816
-4.8101506 0.12563631 0.3037065 -0.27527842 2.045893 0.19034466 -0.08052386 0.21210285
0.14278407 1.8830335 0.78331614 -0.03487813 -1.1205398 0.29762882 0.5203882 0.20376351
0.19214064 0.9135196 -1.6229851 1.0796633 -0.071802944 0.43900216 -0.1604871 -0.3560774
-0.42933348 -3.0810504 0.089033425 0.34613663 0.52864015 0.44295457 -0.080236696 -0.05220188
-0.039122917 0.6104629 0.3774825 0.23119797 1.3488582 0.8000324 0.12410858 0.6840784
0.9351833 0.79903626 0.12968884 0.47396633 0.12416257 -2.421536 -0.37306827 -0.9312505
00000000: d4ac 683d 8fb9 2cbd 1d47 eabd 9575 a3bf
00000010: cb1f 723d 6f09 adbf a978 a93d b597 77be
00000020: ace8 a73f d048 683f 8d1b 4fbc 5ff1 1f3c
00000030: 83d8 423e 3a6c 99bf ee1d 21bc 227c 843c
00000040: 4f69 a1c0 3553 b33e 782c 1a3f 191d 593f
00000050: af0c d03f 96c5 3dbe 4d7a 26bd dba8 8f3e
00000060: 462b 583f 3d67 76bf 212e 5d3f 2b69 01be
00000070: fdca 063f 7dab aabe cc39 ff3e 4077 893e
00000080: 6079 623e 7e02 4ebf 7593 85c0 b78e 22be
00000090: a2dc 0e3d 8c34 8cbe 402b 6cbd c62a 173f
000000a0: 649d 4c3f ff7c 3d3f 620d 85bd 66c5 373e
000000b0: a331 353e 04c2 80c0 2f32 da39 2316 b3bd
000000c0: ac0c 6a3f 43b0 a83e 7532 873f 2e37 603e
000000d0: 25dd 63be 9bc0 08bf f866 84bd 6dae c5bd
000000e0: a183 c53f 74c0 fb3f 622e f43e 415f 883e
000000f0: 7bb4 e3bf 66c6 4f3f d1f2 6cbe d44a d93e
00000100: 62f9 e73e 38f7 23c0 c1c7 693f 18e0 9b3f
00000110: af1a da3d 1833 e2bf 71f0 993d 0ce6 8d3d
00000120: ef6f 813f bd0b 4cc0 7658 c1bc 3330 483e
00000130: 4b2b 88bd 1e81 10bf b0ac eabc ecb3 c93b
00000140: c1ec 99c0 cea6 003e 6b7f 9b3e 4bf1 8cbe
00000150: e9ef 0240 b6e9 423e b2e9 a4bd 7d31 593e
00000160: fd35 123e 3e07 f13f 6887 483f 5fdc 0ebd
00000170: d96d 8fbf ce62 983e 2938 053f 62a7 503e
00000180: 84c0 443e 6cdc 693f fabd cfbf 6832 8a3f
00000190: 6c0d 93bd e4c4 e03e bb56 24be c74f b6be
000001a0: 99d1 dbbe ee2f 45c0 2857 b63d d238 b13e
000001b0: f654 073f f1ca e23e 2353 a4bd a3d1 55bd
000001c0: 5a3f 20bd 4c47 1c3f 6345 c13e 29bf 6c3e
000001d0: 63a7 ac3f ecce 4c3f a42c fe3d c31f 2f3f
000001e0: 2c68 6f3f a48d 4c3f 27cd 043e b7ab f23e
000001f0: f248 fe3d 72fa 1ac0 ce02 bfbe 6f66 6ebf

net.4.bias f4 [4]
0.07194855 0.29507336 -0.09350545 -0.029328804
00000000: c359 933d db13 973e c97f bfbd f642 f0bc
